cifar_net.pth (torch, 181669 bytes, 10 tensors)

conv1.weight f4 [6, 1, 5, 5]
0.30247664 0.39274487 0.12094849 0.097077295 -0.087435246 0.5817091 0.2732349 -0.2654441
-0.3071218 -0.13120869 0.576501 0.00073593063 -0.122387335 -0.3069284 -0.31180575 0.23917444
-0.12500465 -0.21981691 -0.26169547 0.04116481 0.12451916 -0.078998335 -0.07653385 -0.15503293
0.041100815 -0.12798741 0.098188765 0.11809778 0.255699 -0.11956752 -0.19642664 -0.18383104
0.12172322 0.30108017 0.17505303 -0.16681874 -0.17514826 -0.11818527 0.23469344 0.3529114
-0.3951816 -0.13986622 -0.13779052 0.2634789 0.31301263 -0.33854336 -0.07684947 -0.0992363
0.18746474 0.31052834 0.29910997 0.20431978 0.4232223 0.30874324 0.42431924 -0.081790775
0.1323021 0.06313542 0.018119562 0.25073656 -0.19739081 -0.26581424 -0.24152286 -0.0895505
-0.28583506 -0.3422456 -0.31789374 -0.43311647 -0.39217475 -0.19168276 -0.03155445 -0.20257032
-0.20122209 -0.10464125 -0.09956241 0.098052375 0.19722848 -0.29282042 -0.22757533 -0.22080928
0.17698084 -0.0161805 -0.2259426 -0.42235082 -0.20659992 -0.12224228 0.5004355 0.44491196
0.2561009 -0.052159637 0.091241814 0.27512527 0.4672608 0.3277289 0.1011294 -0.06749266
-0.34084424 -0.18707372 0.054444063 0.006841428 -0.20255028 -0.19361699 -0.30590335 -0.19372635
0.01763663 0.16256352 -0.51828265 -0.6362644 -0.26427704 -0.17082553 0.15324824 -0.32352346
-0.25334316 0.11597484 0.03792563 0.29792953 0.26465613 0.4290103 0.34368587 0.14606473
0.20789815 0.5609245 0.40341714 -0.07213211 0.07526257 -0.075965926 0.03322837 0.26103052
0.46471435 0.1725837 0.010464983 0.20338182 0.18765374 0.3247937 0.49867013 0.03561615
-0.04442925 -0.4206017 -0.37731892 0.04611675 0.03401882 -0.1753292 -0.24738003 -0.3313277
0.094187774 0.13806365 -0.06649474 -0.03460155 0.049891524 0.0036209244
00000000: 38de 9a3e db15 c93e d8b3 f73d 76d0 c63d
00000010: 4011 b3bd e3ea 143f 72e5 8b3e 4ae8 87be
00000020: 123f 9dbe 925b 06be 9295 133f 78eb 403a
00000030: 36a6 fabd b825 9dbe 01a5 9fbe 25ea 743e
00000040: 3801 00be af17 61be f3fc 85be 6f9c 283d
00000050: e703 ff3d e1c9 a1bd c7bd 9cbd f4c0 1ebe
00000060: 5459 283d 220f 03be 3117 c93d 40dd f13d
00000070: fbea 823e d1df f4bd 1124 49be 343e 3cbe
00000080: 064a f93d 2e27 9a3e 1a41 333e 88d2 2abe
00000090: 115a 33be 1e0b f2bd 7a53 703e ceb0 b43e
000000a0: 3e55 cabe 1739 0fbe f518 0dbe b5e6 863e
000000b0: 3143 a03e 8e55 adbe 4163 9dbd 673c cbbd
000000c0: c2f6 3f3e 92fd 9e3e f124 993e 3439 513e
000000d0: 98b0 d83e 9813 9e3e 5f40 d93e ec81 a7bd
000000e0: 347a 073e 254d 813d 7a6f 943c 8b60 803e
000000f0: d120 4abe ce18 88be c551 77be 4166 b7bd
00000100: f958 92be d13a afbe f8c2 a2be 71c1 ddbe
00000110: 21cb c8be 7c48 44be 3d3f 01bd 986e 4fbe
00000120: 2a0d 4ebe 274e d6bd 60e7 cbbd afcf c83d
00000130: 43f6 493e 8fec 95be 8209 69be d41b 62be
00000140: 773a 353e f88c 84bc 7f5d 67be 5e3e d8be
00000150: ee8e 53be 295a fabd 8a1c 003f 80cb e33e
00000160: a81f 833e 58a5 55bd fddc ba3d 38dd 8c3e
00000170: cf3c ef3e 15cc a73e ee1c cf3d 9739 8abd
00000180: 2383 aebe 4190 3fbe bd00 5f3d 0f2e e03b
00000190: 5769 4fbe 8843 46be 5d9f 9cbe 3360 46be
000001a0: b27a 903c 0d77 263e 2cae 04bf 39e2 22bf
000001b0: 524f 87be e3ec 2ebe 1bed 1c3e dea4 a5be
000001c0: 32b6 81be 3884 ed3d e857 1b3d 388a 983e
000001d0: 0281 873e 3da7 db3e 98f7 af3e fe91 153e
000001e0: 41e3 543e bf98 0f3f b18c ce3e 00ba 93bd
000001f0: 4323 9a3d 0694 9bbd 791a 083d cba5 853e
00000200: 0aef ed3e c8b9 303e 5275 2b3c 5343 503e
00000210: 4d28 403e 5c4b a63e b151 ff3e 3de2 113d
00000220: 72fb 35bd 1b59 d7be f22f c1be ebe4 3c3d
00000230: 5157 0b3d 7f89 33be 3151 7dbe c9a3 a9be
00000240: 85e5 c03d 8f60 0d3e 652e 88bd 5bba 0dbd
00000250: 0e5b 4c3d 084d 6d3b

conv1.bias f4 [6]
0.047036428 0.1781831 -0.3868329 0.047141913 0.07984135 0.18809566
00000000: 45a9 403d a175 363e f60e c6be e117 413d
00000010: dd83 a33d 269c 403e

conv2.weight f4 [16, 6, 5, 5]
-0.12772088 -0.14008638 0.09641773 0.051692586 0.0675054 -0.10901217 -0.04473471 0.003520265
-0.15634593 -0.02380641 -0.17475119 -0.23328955 -0.09335635 -0.029901031 0.03736493 -0.041441765
-0.16238138 0.008502069 0.13139944 0.12061903 0.022039382 0.108505525 0.23398806 0.18523039
0.017280351 0.035562534 -0.056606226 -0.086405866 0.08830921 0.050347034 0.039758798 -0.04664549
-0.059761513 0.07270058 -0.067178175 -0.06690895 0.01646571 -0.015534119 -0.006951387 -0.16514945
-0.014105766 0.049409017 -0.016685123 -0.12786609 -0.048072077 0.05392284 -0.12465547 -0.13878381
-0.08805215 0.008902371 -0.06353553 0.059153143 0.15324599 0.032086767 -0.09398177 -0.08850804
0.010215956 0.09915426 -0.06252645 -0.05751994 -0.06434904 -0.064247735 -0.07019453 -0.112866044
0.04616092 -0.11583598 -0.13715479 -0.19565575 -0.016878463 0.10511498 -0.16904704 -0.10373658
0.07203816 0.05548106 -0.041989107 0.04695298 0.06277179 -0.055402182 -0.05066741 0.106109515
0.045913946 0.06888591 0.0051929466 -0.058213845 -0.07538282 0.07006849 0.119528286 0.15788753
-0.0047805663 -0.11967115 0.05163129 0.04428315 -0.012042287 -0.044987164 0.033526253 -0.026311852
-0.1045726 -0.014874113 -0.1132161 0.07100142 0.0890108 0.0007984517 -0.10006362 -0.1392414
-0.018620435 0.0660152 0.08514729 0.16169459 0.029795703 -0.013147667 -0.10473818 -0.014085627
0.14232236 0.19260332 -0.054903496 0.21292403 0.114061184 0.14412104 -0.121321976 -0.042300817
0.1498367 0.00060850225 -0.10942953 -0.13782078 -0.059322376 -0.004398672 0.031295784 0.13645379
0.092955075 -0.0446362 -0.016302086 0.0355715 0.07137885 -0.03933896 -0.12634185 0.09078166
0.017605556 -0.104683384 0.0090877935 0.02599793 0.0034354837 0.072870225 -0.027532095 -0.031356856
-0.078835845 -0.052707326 0.000951225 0.0925432 -0.05477067 -0.09099567 -0.011681405 0.040145986
0.11530765 0.21085119 0.05687264 0.10393861 -0.06116434 0.13251707 0.11344401 0.014960696
0.03250182 -0.018821022 -0.041807655 -0.03812804 -0.033184417 0.047193166 -0.016196597 -0.03295183
-0.10330269 -0.10604464 -0.06274839 0.04089116 -0.005615525 0.06806422 -0.008930097 -0.10304549
0.09543457 0.09897341 0.07835107 0.1488923 -0.03497029 -0.02383724 -0.07134853 -0.022008892
-0.004851042 -0.0338773 -0.12259673 -0.13434671 -0.15539065 0.038156264 -0.071233906 -0.027714463
-0.060657147 0.021291917 -0.08691774 -0.045564275 -0.040224034 0.14449859 0.027473675 0.013145218
0.03615929 -0.09729111 -0.12989365 -0.010044638 -0.12269439 0.009157168 -0.03765208 0.09636313
0.06082226 0.0053623575 -0.04845749 -0.017831217 0.008853567 -0.026017569 0.06242857 -0.15386155
-0.1701543 -0.12750071 -0.070404425 -0.057922874 0.11391885 0.2102906 0.21173851 0.10362644
-0.11849892 -0.084573 -0.044414166 -0.10613505 -0.019565837 -0.14506531 0.018546265 -0.11864464
-0.066454954 -0.08892078 0.009096955 -0.1320072 -0.10965338 0.022363182 -0.039652485 -0.048787333
0.027215684 0.19463652 0.26951733 0.10438306 0.085886784 -0.03675094 0.03316149 0.11585727
0.17797904 0.15384004 -0.037102927 -0.032124892 -0.014854925 -0.18512686 -0.17534672 0.05284019
00000000: 43c9 02be ce72 0fbe a976 c53d 9bbb 533d
00000010: 4540 8a3d c641 dfbd be3b 37bd 3fb4 663b
00000020: 2619 20be a905 c3bc faf1 32be 75e3 6ebe
00000030: 9d31 bfbd 02f3 f4bc f80b 193d d7be 29bd
00000040: 4e47 26be 434c 0b3c 938d 063e 1c07 f73d
00000050: ef8b b43c 2538 de3d 919a 6f3e 09ad 3d3e
00000060: 868f 8d3c 05aa 113d eedb 67bd 8ff5 b0bd
00000070: 76db b43d b138 4e3d 1fda 223d 570f 3fbd
00000080: 7dc8 74bd 0be4 943d b694 89bd 8f07 89bd
00000090: 19e3 863c d182 7ebc 76c8 e3bb f01c 29be
000000a0: df1b 67bc 1c61 4a3d 3daf 88bc 54ef 02be
000000b0: 3ae7 44bd 32de 5c3d 5e4b ffbd 581d 0ebe
000000c0: b054 b4bd 40db 113c ea1e 82bd 914a 723d
000000d0: 84ec 1c3e 6a6d 033d 8479 c0bd b443 b5bd
000000e0: d360 273c 6311 cb3d de0d 80bd 079a 6bbd
000000f0: 6ec9 83bd 5194 83bd 26c2 8fbd 5026 e7bd
00000100: 3c13 3d3d 6a3b edbd 4e72 0cbe fb59 48be
00000110: b444 8abc 8646 d73d ab1a 2dbe d873 d4bd
00000120: be88 933d 1c40 633d c5fc 2bbd c551 403d
00000130: 7f8e 803d 66ed 62bd a188 4fbd f24f d93d
00000140: 4310 3c3d 0e14 8d3d 9829 aa3b a471 6ebd
00000150: 4f62 9abd 1280 8f3d 3fcb f43d 45ad 213e
00000160: 4ca6 9cbb 2616 f5bd 557b 533d 4062 353d
00000170: 034d 45bc 7644 38bd d352 093d f48b d7bc
00000180: 292a d6bd 8db2 73bc d8dd e7bd 3169 913d
00000190: 4b4b b63d 304f 513a 28ee ccbd 4c95 0ebe
000001a0: e289 98bc fa32 873d b461 ae3d 4493 253e
000001b0: 1e16 f43c 5069 57bc f980 d6bd 67c7 66bc
000001c0: f4bc 113e ce39 453e 7de2 60bd c208 5a3e
000001d0: e998 e93d 7794 133e a877 f8bd 9f43 2dbd
000001e0: cb6e 193e e583 1f3a 971c e0bd e420 0dbe
000001f0: 05fc 72bd bc22 90bb 0230 003d 8bba 0b3e
00000200: 3b5f be3d 73d4 36bd f48b 85bc 6cb3 113d
00000210: 132f 923d e421 21bd c25f 01be bceb b93d
00000220: 8739 903c 3e64 d6bd f8e4 143c 9cf9 d43c
00000230: da25 613b fc3c 953d fd8a e1bc 0c70 00bd
00000240: b074 a1bd a3e3 57bd a15b 793a 4a87 bd3d
00000250: 3657 60bd f05b babd 5d63 3fbc 1e70 243d
00000260: 6b26 ec3d 60e9 573e 49f3 683d c4dd d43d
00000270: 7587 7abd 8eb2 073e 5555 e83d b51d 753c
00000280: a120 053d 8b2e 9abc 813e 2bbd 262c 1cbd
00000290: 62ec 07bd 9f4d 413d baae 84bc 80f8 06bd
000002a0: 5c90 d3bd ef2d d9bd 3a82 80bd 7d7d 273d
000002b0: 7002 b8bb 4165 8b3d 8b4f 12bc 8409 d3bd
000002c0: 3373 c33d 92b2 ca3d 8776 a03d 3977 183e
000002d0: 023d 0fbd 5146 c3bc 2e1f 92bd fe4b b4bc
000002e0: 7df5 9ebb ecc2 0abd ff13 fbbd 2f92 09be
000002f0: ba1e 1fbe be49 1c3d 15e3 91bd 7109 e3bc
00000300: a173 78bd 636c ae3c ee01 b2bd 9ba1 3abd
00000310: f5c1 24bd 70f7 133e 7910 e13c 0a5f 573c
00000320: c31b 143d 9040 c7bd d702 05be 4492 24bc
00000330: 3247 fbbd f207 163c 1139 1abd 085a c53d
00000340: c320 793d b7b6 af3b 5c7b 46bd c612 92bc
00000350: 8d0e 113c cc22 d5bc 1ab5 7f3d e28d 1dbe
00000360: ee3c 2ebe 8c8f 02be 3230 90bd 8940 6dbd
00000370: 494e e93d 6b56 573e fbd1 583e 193a d43d
00000380: 90af f2bd 9c34 adbd a1eb 35bd 555d d9bd
00000390: 8948 a0bc 008c 14be 56ee 973c f6fb f2bd
000003a0: 8919 88bd 191c b6bd 650b 153c e52c 07be
000003b0: f491 e0bd fe32 b73c a56a 22bd 3ad5 47bd
000003c0: 6df3 de3c cc4e 473e 2dfe 893e c9c6 d53d
000003d0: 69e5 af3d 2788 16bd 58d4 073d 9446 ed3d
000003e0: 2340 363e 3e88 1d3e 3df9 17bd 6495 03bd
000003f0: 1262 73bc e591 3dbe 178e 33be f46e 583d

conv2.bias f4 [16]
-0.05823869 -0.024651164 -0.0603436 0.081041746 0.02847059 0.035614416 -0.017551256 -0.014802169
0.0043365653 -0.020800332 0.07915599 0.0044471473 -0.040429823 0.0022377102 -0.09083309 0.007809981
00000000: b18b 6ebd 3df1 c9bc da2a 77bd 37f9 a53d
00000010: 283b e93c 6ce0 113d a7c7 8fbc cc84 72bc
00000020: bf19 8e3b 7565 aabc 891c a23d 60b9 913b
00000030: be99 25bd 8ca6 123b b306 babd deea ff3b

fc1.weight f4 [120, 256]
0.017550716 0.04906476 -0.03055358 -0.037285745 0.018547956 -0.036277466 -0.0010837013 -0.037715964
0.04568635 -0.0064628394 -0.0035865058 -0.04148109 -0.009606094 0.052919935 -0.023089347 0.049548972
-0.06214259 0.04208125 0.048163455 -0.015886307 -0.017502917 -0.0547643 -0.028097473 0.0578094
0.03174006 0.045939315 -0.039227977 0.052088026 -0.051918294 0.02989851 -0.04509343 -0.048055306
-0.06772434 -0.032506615 -0.027048113 0.016690167 0.04193677 -0.034267608 -0.023928018 0.03144662
0.01863843 -0.028100798 0.025595712 -0.027456993 -0.047721736 -0.033379704 -0.025790306 -0.001160587
0.018618949 -0.024316717 0.055279016 0.04443383 -0.031864952 -0.03283701 0.051270843 -0.047863584
-0.010813811 -0.03574646 0.033424485 0.040284045 0.012289538 0.031877913 -0.026980463 0.024780048
0.03364941 0.013297497 0.0557561 -0.034672637 -0.009078412 0.0015446962 -0.024949875 -0.010721826
0.007337282 -0.016671916 -0.0069473577 -0.003509749 0.042110387 -0.0053251423 -0.031370576 0.03709541
0.026370963 -0.024174023 -0.026716549 0.04424501 -0.0132409055 -0.035849504 -0.01747138 -0.055932313
0.04728208 0.050047584 -0.0097075235 -0.010820921 0.03545165 0.04631884 -0.040049568 0.007607822
-0.0026792414 -0.0049663926 -0.025682626 0.011341843 0.0017122654 0.004979201 -0.054610223 0.02910158
0.0065410393 -0.030399568 -0.056952175 0.0035530378 0.02573991 -0.042082727 -0.06081679 -0.042058546
0.0367205 -0.0014832574 0.048731808 0.01893854 0.035370503 -0.0052140118 -0.029504834 0.04805871
-0.06016456 -0.011101873 0.04469297 -0.004718902 0.027804608 -0.038595457 0.045187484 0.01188586
-0.019780776 -0.019121414 0.02527674 0.021295432 -0.023411665 -0.063783385 0.04638704 -0.047622737
0.039874475 -0.02700854 0.032865666 0.031186607 0.043754086 -0.034187842 -0.04521239 -0.050999682
-0.058767516 0.028088912 0.05735425 -0.055420846 -0.05868574 0.021708854 -0.042299453 -0.0051455465
0.05624448 -0.014355412 0.05700368 -0.06262793 0.009357336 0.029067364 -0.005109237 -0.055837747
0.0214706 -0.06694244 0.05793328 -0.041608125 -0.026651654 -0.004912362 -0.035472427 -0.01677309
-0.06381186 0.05645324 -0.061533768 0.0094073 -0.038297802 0.0091323955 -0.026769126 0.025479876
-0.051612142 0.043213755 -0.04194991 0.018402869 -0.004716729 -0.0196162 -0.02928029 0.057190526
0.020812575 0.028631285 -0.027530434 0.027167717 0.03743033 -0.010646552 -0.038814716 0.0137366885
-0.0443178 0.03602165 -0.019200105 -0.053475466 -0.0064410823 -0.003616157 -0.017525738 -0.018199308
-0.030874442 -0.05965961 0.00941152 -0.06251137 0.010070596 -0.024693146 -0.05274088 0.03064382
0.04944617 0.03494279 -0.011347477 0.05141546 -0.014393013 0.040889613 -0.0074137505 0.017482383
-0.056500793 -0.03709655 0.029650493 -0.057042662 0.05519894 -0.044863153 -0.00653591 -0.03913498
-0.034982063 -0.055069044 -0.053273205 0.038460825 -0.026750786 -0.045762025 -0.014602947 -0.017010013
-0.0111209545 -0.046500273 -0.035116415 -0.06533083 -0.030027991 -0.027454985 -0.022460833 -0.044737957
0.032575738 -0.058585476 0.051520735 -0.026403783 -0.01669818 0.048903048 -0.005471422 -0.011414174
-0.0055460082 0.059894595 -0.03701484 -0.04008724 -0.020493785 -0.06094437 -0.041615915 -0.053252965
00000000: 85c6 8f3c 21f8 483d 804b fabc f0b8 18bd
00000010: e2f1 973c ae97 14bd fb0a 8eba 0e7c 1abd
00000020: 9c21 3b3d 3ac6 d3bb 950b 6bbb 13e8 29bd
00000030: e162 1dbc 93c2 583d df25 bdbc ddf3 4a3d
00000040: 3a89 7ebd 645d 2c3d 0b47 453d 0024 82bc
00000050: 4762 8fbc 8850 60bd ac2c e6bc 8dc9 6c3d
00000060: dd01 023d dd2a 3c3d 84ad 20bd 415a 553d
00000070: 47a8 54bd b8ed f43c e3b3 38bd a4d5 44bd
00000080: 0fb3 8abd a825 05bd 0194 ddbc d1b9 883c
00000090: e4c5 2b3d 315c 0cbd b104 c4bc 2cce 003d
000000a0: 9faf 983c a533 e6bc 19ae d13c 7ded e0bc
000000b0: de77 43bd 28b9 08bd 3146 d3bc d61e 98ba
000000c0: c486 983c da33 c7bc 406c 623d 3f00 363d
000000d0: d384 02bd 1a80 06bd 6001 523d 9b0c 44bd
000000e0: 692c 31bc e16a 12bd 1de8 083d e200 253d
000000f0: 0f5a 493c 6a92 023d 2206 ddbc 87ff ca3c
00000100: f7d3 093d bfdd 593c 8260 643d e504 0ebd
00000110: 9fbd 14bc 6777 ca3a ae63 ccbc 99aa 2fbc
00000120: 956d f03b 8b93 88bc a9a6 e3bb d103 66bb
00000130: f17b 2c3d 887e aebb 6f7e 00bd 5bf1 173d
00000140: eb07 d83c 9a08 c6bc aadc dabc 413a 353d
00000150: 62f0 58bc eed6 12bd 2420 8fbc 4819 65bd
00000160: dbaa 413d b2fe 4c3d 4e0c 1fbc 3b4a 31bc
00000170: c035 113d d3b8 3d3d 040b 24bd 094b f93b
00000180: 3696 2fbb 1fbd a2bb 5f64 d2bc 23d3 393c
00000190: 186e e03a 9128 a33b f8ae 5fbd 7066 ee3c
000001a0: 3756 d63b 8408 f9bc af46 69bd 15da 683b
000001b0: 81dc d23c f05e 2cbd 071b 79bd 9545 2cbd
000001c0: 3c68 163d dc69 c2ba 019b 473d ff24 9b3c
000001d0: a9e0 103d 4dda aabb 1fb4 f1bc 36d9 443d
000001e0: 1d6f 76bd a1e4 35bc fa0f 373d 05a1 9abb
000001f0: 7dc6 e33c 4516 1ebd 8316 393d e9bc 423c
00000200: 4b0b a2bc 83a4 9cbc 2a11 cf3c c273 ae3c
00000210: d2c9 bfbc dda0 82bd 5600 3e3d 0f10 43bd
00000220: 6b53 233d 0441 ddbc 269e 063d 0e7b ff3c
00000230: 7c37 333d 8d08 0cbd a130 39bd 0be5 50bd
00000240: 35b6 70bd b81a e63c 4aec 6a3d f800 63bd
00000250: 7560 70bd c4d6 b13c 3142 2dbd f99b a8bb
00000260: 9d60 663d f632 6bbc b17c 693d 1243 80bd
00000270: 834f 193c ae1e ee3c 636b a7bb 1fb6 64bd
00000280: 1de3 af3c 1e19 89bd 724b 6d3d 486d 2abd
00000290: 9254 dabc e1f7 a0bb 894b 11bd b867 89bc
000002a0: cbaf 82bd 833b 673d d50a 7cbd 1321 1a3c
000002b0: 28de 1cbd 0ba0 153c ed4a dbbc 2cbb d03c
000002c0: 4167 53bd e800 313d abd3 2bbd 9dc1 963c
000002d0: ca8e 9abb 27b2 a0bc 38dd efbc 9d40 6a3d
000002e0: 227f aa3c 288c ea3c 8187 e1bc d58e de3c
000002f0: 8c50 193d e06e 2ebc 2efc 1ebd d90f 613c
00000300: 9586 35bd 708b 133d 8a49 9dbc 1709 5bbd
00000310: b70f d3bb 0cfd 6cbb 2392 8fbc b716 95bc
00000320: 66ec fcbc a35d 74bd c732 1a3c f605 80bd
00000330: 24ff 243c 4849 cabc d206 58bd c008 fb3c
00000340: 1188 4a3d 2c20 0f3d c5ea 39bc 0499 523d
00000350: acd0 6bbc de7b 273d 0cef f2bb 3737 8f3c
00000360: 606d 67bd 8df2 17bd 97e5 f23c 91a5 69bd
00000370: 4918 623d 6dc2 37bd 302b d6bb 004c 20bd
00000380: 5a49 0fbd 1490 61bd 0135 5abd 1989 1d3d
00000390: 7724 dbbc f670 3bbd 3341 6fbc 9558 8bbc
000003a0: aa34 36bc 1277 3ebd 3bd6 0fbd 2ccc 85bd
000003b0: 43fd f5bc 47e9 e0bc c8ff b7bc 263f 37bd
000003c0: 236e 053d 53f7 6fbd 6807 533d bf4c d8bc
000003d0: 9fca 88bc 904e 483d 9d49 b3bb 8402 3bbc
000003e0: 4abb b5bb 0954 753d df9c 17bd 8532 24bd
000003f0: 95e2 a7bc cea0 79bd 7375 2abd c81f 5abd

fc1.bias f4 [120]
-0.033251993 -0.0495597 -0.067622535 0.024495834 -0.062406026 -0.0039695776 -0.03994655 -0.017656764
-0.058162402 0.057030275 0.02110113 -0.041921433 -0.031356882 0.0423822 0.033482216 0.051805478
-0.024659991 0.0022137954 -0.029469177 -0.018857682 -0.0283154 0.052738518 0.0037341397 0.008043228
0.06118506 -0.024536064 -0.016705092 0.012654879 -0.0430636 0.017713424 0.041331258 0.03156883
-0.016713252 -0.0043348223 0.050641842 -0.026987217 -0.019536605 -0.0058753616 -0.010590098 -0.008718541
-0.023814933 0.053081516 0.0048186607 0.0047525177 -0.051302012 -0.017831441 0.02992453 0.026258904
-0.005607309 0.047870945 -0.011785064 0.07048471 -0.014727092 0.06217709 -0.028166428 0.034200843
0.012156372 -0.014236446 0.020510893 0.0444236 0.021688992 -0.051265374 0.0073711094 0.03517635
0.03730855 0.049447674 0.043572582 0.050127726 0.051526904 -0.015812838 0.03309395 -0.05470354
0.033755027 0.029357068 0.0475216 -0.03095333 0.03408252 -0.045223553 -0.034348235 0.039819546
-0.042183917 -0.04617138 0.04295618 0.028295347 0.014466621 -0.004667016 0.018304545 0.07355545
-0.045171753 0.009476654 0.043784387 0.010509091 0.04863606 0.006235459 0.046976052 0.06375743
-0.03038035 0.05583377 -0.038466908 0.031947058 -0.060388956 0.04142353 -0.07237772 -0.052318905
0.03269582 0.030243415 -0.05168456 -0.048790034 0.0016536864 0.04372017 -0.0054682624 -0.039459392
-0.023763811 -0.025904834 0.054898266 -0.005781434 0.0023220584 0.021614373 -0.00860015 -0.027638305
00000000: 3e33 08bd 1dff 4abd af7d 8abd 7dab c83c
00000010: 769d 7fbd 3b13 82bb fe9e 23bd eba4 90bc
00000020: b33b 6ebd 9498 693d 47dc ac3c cfb5 2bbd
00000030: 1370 00bd f598 2d3d a624 093d fb31 543d
00000040: c003 cabc 5315 113b 5869 f1bc 6d7b 9abc
00000050: b3f5 e7bc 5804 583d 78b8 743b bec7 033c
00000060: 2f9d 7a3d dbff c8bc 1ed9 88bc 6956 4f3c
00000070: 7563 30bd be1b 913c f74a 293d 514e 013d
00000080: 3bea 88bc 200b 8ebb d26d 4f3d 4c14 ddbc
00000090: 3b0b a0bc 1b86 c0bb 1782 2dbc 36d8 0ebc
000000a0: 8917 c3bc 016c 593d dbe5 9d3b 02bb 9b3b
000000b0: 0f22 52bd 3e13 92bc 4a24 f53c ea1c d73c
000000c0: 84bd b7bb 5314 443d 2416 41bc 4a5a 903d
000000d0: e749 71bc 68ad 7e3d 48bd e6bc 2f16 0c3d
000000e0: 852b 473c fb3f 69bc 7606 a83c 85f5 353d
000000f0: 1dad b13c a4fb 51bd 5989 f13b 1415 103d
00000100: dad0 183d a589 4a3d 2a79 323d bb52 4d3d
00000110: e00d 533d ed89 81bc 868d 073d d210 60bd
00000120: b642 0a3d 3c7e f03c 02a6 423d d791 fdbc
00000130: 1d9a 0b3d 553c 39bd bcb0 0cbd d219 233d
00000140: 0bc9 2cbd 331e 3dbd d2f2 2f3d a5cb e73c
00000150: 6805 6d3c c5ed 98bb 6af3 953c 3da4 963d
00000160: 0406 39bd f843 1b3c 4257 333d 532e 2c3c
00000170: 9b36 473d d252 cc3b f669 403d 4193 823d
00000180: 36e0 f8bc f4b1 643d 7a8f 1dbd ebda 023d
00000190: 695a 77bd b8ab 293d c53a 94bd 594c 56bd
000001a0: 0dec 053d 0ac1 f73c 30b3 53bd 0fd8 47bd
000001b0: 82c0 d83a ec13 333d 1c2f b3bb 2ca0 21bd
000001c0: 53ac c2bc 6036 d4bc 01dd 603d 2f72 bdbb
000001d0: ad2d 183b a010 b13c a5e7 0cbc ba69 e2bc

fc2.weight f4 [84, 120]
0.0580476 -0.025373025 0.06725857 0.105724126 0.0072459686 0.002480054 -0.04681679 0.04364329
0.08141474 -0.09240262 -0.081298985 -0.015665935 0.0067137307 -0.03505431 0.03384782 -0.016681062
0.10393592 0.062524036 -0.09915027 -0.07165814 -0.115414545 0.0016315259 0.06589555 0.013685733
0.029597213 0.072196096 0.05767931 0.09001886 -0.074056685 0.022834465 0.07416833 -0.027963523
-0.099298425 -0.05652043 0.023835866 0.04119469 0.032050993 -0.0007366423 -0.05870712 -0.08390529
-0.011293968 0.048597325 -0.030829174 0.091999225 0.058337692 -0.14033127 -0.04030827 0.026528554
0.051904827 -0.019739125 0.0073312656 0.104719296 -0.093904026 0.04179418 0.049527273 0.052949335
0.0012443676 -0.04691165 -0.012200237 0.016719116 0.058061182 0.05385708 -0.03402663 0.014863111
-0.041772924 0.04549748 0.1421349 -0.032750025 0.060916495 -0.060958683 -0.012310585 0.02477962
0.033741023 -0.038684107 0.117010705 0.020801144 -0.039769217 -0.082730435 -0.07414592 -0.009880489
-0.09881624 -0.09794015 -0.094013155 0.02165679 -0.050646655 -0.091885984 0.023463132 -0.021169417
-0.071412764 -0.008393006 -0.09898827 0.005795606 -0.055360503 -0.0075914594 0.041992825 0.013965807
0.04404285 0.038462833 0.11906805 -0.06727237 -0.025541507 0.09130212 0.07091424 0.07922054
0.110195614 0.06814421 -0.11083847 -0.061456017 0.024192084 -0.09074698 0.018421775 0.05652997
0.085091405 0.012671632 -0.022653805 -0.18233752 0.062769525 -0.14903201 0.076484516 -0.04663608
-0.026083978 -0.04164488 -0.058183853 -0.033663344 -0.058438428 -0.014704482 -0.092944145 0.07773564
0.087849066 0.082503185 -0.012572754 -0.019328864 -0.13981652 0.033968974 0.0800477 -0.04546931
-0.07315577 0.011228585 0.03251017 0.07879085 -0.078506954 -0.085747056 0.10743174 0.077793255
-0.032101996 -0.032584 0.030041946 0.015456599 -0.07584014 -0.056210175 0.007565956 -0.0677322
-0.0045690294 0.07213811 0.108297534 -0.033086225 0.08464783 0.046565656 -0.0031115816 -0.018000841
-0.048032597 0.055826813 0.04067133 -0.08227196 0.05780695 0.06367865 -0.029963795 0.070462786
-0.07876978 -0.09533452 0.0071394052 0.018114055 -0.03410862 0.029271863 0.03401276 -0.007238338
0.025171941 0.055201687 -0.1145495 0.012117847 0.036972318 0.0012907877 -0.023949899 0.047172938
0.06532625 -0.008266671 -0.050771434 -0.023301827 0.054143425 0.053350266 0.083949074 -0.032309543
-0.08108349 0.012530802 -0.017893864 0.036249746 -0.04537995 0.040417824 -0.08000815 0.10765121
-0.063954815 0.008146584 0.08830999 -0.021843862 -0.031674776 -0.0019320198 0.08459585 0.11486049
0.053651568 0.03547281 0.08791882 -0.07989467 -0.10197009 -0.027181618 -0.029039461 0.0027201066
0.10769586 0.02275947 -0.1064406 -0.06304701 -0.0028588069 -0.06944185 0.04876948 0.08692645
-0.08094817 0.090721235 -0.05453216 0.08272884 -0.04645044 -0.03475103 0.06985408 0.049331
-0.027036278 -0.065856114 -0.03927622 -0.11148613 -0.066530496 0.044728324 -0.023055602 0.040685695
0.0047898 -0.08103732 -0.09058161 0.031943213 0.01172835 -0.096278585 0.080968775 0.028561613
-0.045539115 0.022128262 0.09938969 -0.071267664 -0.035173677 0.030002018 -0.004158594 0.07827373
00000000: 52c3 6d3d 17db cfbc dcbe 893d e485 d83d
00000010: 976f ed3b 6788 223b f6c2 3fbd 4ec3 323d
00000020: c5bc a63d 963d bdbd 1580 a6bd d955 80bc
00000030: dbfe db3b 1c95 0fbd 03a4 0a3d b9a6 88bc
00000040: 5bdc d43d 9a0c 803d 4c0f cbbd 81c1 92bd
00000050: 765e ecbd edd8 d53a 3ff4 863d 203a 603c
00000060: db75 f23c 8cdb 933d 2441 6c3d cf5b b83d
00000070: 08ab 97bd 580f bb3c 91e5 973d c213 e5bc
00000080: f95c cbbd f781 67bd 6f43 c33c c3bb 283d
00000090: e747 033d 3a1b 41ba e176 70bd 89d6 abbd
000000a0: 560a 39bc fd0d 473d 778d fcbc 176a bc3d
000000b0: 81f3 6e3d 00b3 0fbe 491a 25bd 6952 d93c
000000c0: 289a 543d f2b3 a1bc 1d3b f03b 1277 d63d
000000d0: c150 c0bd 6030 2b3d 1cdd 4a3d 67e1 583d
000000e0: 0c1a a33a 6e26 40bd 81e3 47bc 87f6 883c
000000f0: 90d1 6d3d 3e99 5c3d 825f 0bbd 6884 733c
00000100: 161a 2bbd 915b 3a3d d08b 113e e424 06bd
00000110: 9383 793d d0af 79bd 56b2 49bc a1fe ca3c
00000120: 0734 0a3d 3a73 1ebd 4fa3 ef3d 2967 aa3c
00000130: 0ce5 22bd 936e a9bd d1d9 97bd c6e1 21bc
00000140: 2b60 cabd d894 c8bd f889 c0bd 9569 b13c
00000150: de72 4fbd b82e bcbd c135 c03c 7c6b adbc
00000160: db40 92bd d282 09bc 5dba cabd 11e9 bd3b
00000170: b2c1 62bd c7c1 f8bb ab00 2c3d d7d0 643c
00000180: 4766 343d 348b 1d3d f3d9 f33d 19c6 89bd
00000190: 6c3c d1bc 9bfc ba3d 7c3b 913d 613e a23d
000001a0: 3dae e13d 318f 8b3d 48ff e2bd 4eb9 7bbd
000001b0: 7a2e c63c 8dd9 b9bd 43e9 963c f88b 673d
000001c0: 6744 ae3d ad9c 4f3c 7994 b9bc b0b6 3abe
000001d0: 4f8d 803d d99b 18be eaa3 9c3d 7905 3fbd
000001e0: 11ae d5bc d293 2abd 3152 6ebd 93e2 09bd
000001f0: 225d 6fbd 11eb 70bc 8059 bebd dd33 9f3d
00000200: 36ea b33d 6ef7 a83d f4fd 4dbc 9157 9ebc
00000210: 102c 0fbe 0d23 0b3d 0cf0 a33d 073e 3abd
00000220: b1d2 95bd 19f8 373c 6229 053d 195d a13d
00000230: 41c8 a0bd 279c afbd 2c05 dc3d 1252 9f3d
00000240: 627d 03bd cd76 05bd 871a f63c ad3d 7d3c
00000250: 1352 9bbd a43c 66bd d7eb f73b 2eb7 8abd
00000260: ccb7 95bb 25bd 933d 19cb dd3d 6c85 07bd
00000270: d75b ad3d a1bb 3e3d adeb 4bbb 8076 93bc
00000280: d4bd 44bd a8aa 643d fb96 263d 347e a8bd
00000290: fbc6 6c3d f469 823d a276 f5bc cb4e 903d
000002a0: 0d52 a1bd bf3e c3bd acf1 e93b ed63 943c
000002b0: 7bb5 0bbd 8ccb ef3c f750 0b3d 942f edbb
000002c0: 6335 ce3c 2a1b 623d ee98 eabd ef89 463c
000002d0: 4970 173d a62f a93a 9432 c4bc 6938 413d
000002e0: c5c9 853d ee70 07bc b5f5 4fbd 79e3 bebc
000002f0: 7fc5 5d3d cf85 5a3d 7eed ab3d 0357 04bd
00000300: 1a0f a6bd fe4d 4d3c 2796 92bc 9d7a 143d
00000310: 54e0 39bd 298d 253d 50db a3bd 3d78 dc3d
00000320: befa 82bd 4079 053c dedb b43d e6f1 b2bc
00000330: 69bd 01bd d43b fdba 9740 ad3d fa3b eb3d
00000340: bfc1 5b3d f04b 113d c80e b43d d19f a3bd
00000350: b2d5 d0bd fcab debc 2ae4 edbc d143 323b
00000360: a68f dc3d 1172 ba3c 87fd d9bd ca1e 81bd
00000370: d25a 3bbb 8737 8ebd 82c2 473d 7f06 b23d
00000380: 27c8 a5bd 0ecc b93d 1d5d 5fbd bd6d a93d
00000390: d142 3ebd 1957 0ebd a80f 8f3d 4d0f 4a3d
000003a0: 2f7b ddbc 92df 86bd 1ae0 20bd d752 e4bd
000003b0: 2441 88bd 0c35 373d 1adf bcbc 0ba6 263d
000003c0: c1f3 9c3b e5f6 a5bd da82 b9bd e3d6 023d
000003d0: 4428 403c b52d c5bd f5d2 a53d 0bfa e93c
000003e0: 3987 3abd 5446 b53c d28c cb3d c8f4 91bd
000003f0: 4612 10bd cbc6 f53c d144 88bb fa4d a03d

fc2.bias f4 [84]
0.05949076 -0.0740677 -0.026148388 -0.048889592 0.0015302561 -0.008269399 -0.052219052 -0.036509477
0.0627093 0.048958972 -0.025826745 -0.028328182 0.075525284 -0.061950844 0.005624593 0.10523054
0.019949239 -0.017738273 -0.080361076 0.044513658 -0.047207423 0.054983143 0.0851346 -0.095464356
-0.041902624 0.033469554 -0.097825125 -0.042935684 -0.019949196 0.06344122 0.055561904 -0.067499384
-0.061224353 -0.06996128 0.050794106 -0.06859764 -0.105086036 -0.06971027 0.04115334 -0.06269033
0.027474085 -0.017003262 0.020819914 0.050372895 0.10772379 -0.01608548 0.12131356 -0.078987755
0.071820654 0.0769421 -0.0796085 -0.020397158 -0.018607052 0.03558051 -0.033900946 -0.11125778
0.10198189 0.030991485 -0.07975245 -0.017826105 -0.067630105 0.033961944 0.035447072 -0.08705791
-0.030493254 0.04936567 -0.051896784 0.028705087 -0.08944456 0.09730384 0.06326112 -0.02888369
-0.022678973 0.059395235 0.06478694 -0.036656246 0.060948133 0.075205095 -0.031403415 0.03886143
0.06980733 -0.015818799 -0.069787055 -0.08358742
00000000: 95ac 733d ceb0 97bd 2535 d6bc 7440 48bd
00000010: e092 c83a 607c 07bc a5e3 55bd f68a 15bd
00000020: bc6d 803d 3489 483d 9c92 d3bc 8110 e8bc
00000030: 00ad 9a3d 2bc0 7dbd 814e b83b 1c83 d73d
00000040: 966c a33c db4f 91bc 5994 a4bd f453 363d
00000050: 925c 41bd 0136 613d 0d5b ae3d d182 c3bd
00000060: 16a2 2bbd 5f17 093d 8a58 c8bd 54dd 2fbd
00000070: 7f6c a3bc 78ed 813d e194 633d 1e3d 8abd
00000080: 63c6 7abd dc47 8fbd 7b0d 503d eb7c 8cbd
00000090: 5937 d7bd 42c4 8ebd 6890 283d ca63 80bd
000000a0: 5511 e13c 6d4a 8bbc 868e aa3c cf53 4e3d
000000b0: 4a9e dc3d b2c5 83bc 3e73 f83d 55c4 a1bd
000000c0: b516 933d d293 9d3d c809 a3bd f117 a7bc
000000d0: d16d 98bc debc 113d b8db 0abd 1edb e3bd
000000e0: e2db d03d dbe1 fd3c 4155 a3bd 0d08 92bc
000000f0: a781 8abd ae1b 0b3d f330 113d 6b4b b2bd
00000100: fdcc f9bc a833 4a3d b991 54bd ee26 eb3c
00000110: b62e b7bd 3c47 c73d 0c8f 813d 7d9d ecbc
00000120: 41c9 b9bc 6b48 733d 04af 843d dc24 16bd
00000130: c0a4 793d 2105 9a3d dea0 00bd 2a2d 1f3d
00000140: 25f7 8e3d 6d96 81bc 84ec 8ebd e22f abbd

fc3.weight f4 [10, 84]
-0.13696934 0.07435303 -0.001442684 0.21521795 0.08497201 0.13780968 -0.016238203 0.12206681
0.22269513 0.05670877 0.083439246 -0.11350701 -0.24275562 0.025083572 -0.15124944 -0.111205325
0.086093456 0.050686125 -0.078756124 0.03116792 -0.07298196 -0.22185838 -0.03847612 -0.1391807
0.12795462 0.007831138 -0.070947394 -0.020884847 -0.19047408 -0.021932993 -0.004208011 -0.09282649
0.23051736 0.039554816 -0.06533771 0.037845176 0.29935217 -0.0995573 -0.30443162 -0.08780686
0.101759374 0.0640179 -0.25849283 0.11623263 -0.15197825 -0.15215027 -0.045447234 -0.0920414
-0.1702005 -0.0031653421 -0.021754328 0.17261362 0.34501693 -0.36405563 0.13747261 -0.10296786
0.1358642 -0.01897779 -0.005991431 -0.08020201 0.022386312 -0.09419626 0.018932527 0.27002373
-0.096015155 -0.12243216 0.20730603 0.2605027 0.10633033 0.038920898 -0.19551422 -0.13606097
0.08274217 0.062434405 -0.09963923 -0.14219537 -0.017747855 -0.09137791 -0.15979974 -0.12109572
-0.11687004 -0.057494998 0.073338516 0.029588744 -0.043145686 -0.122540355 -0.12629934 0.091380395
-0.02868884 -0.08628058 -0.073672555 0.16490704 -0.1284525 -0.27736297 0.17908841 0.013578481
-0.10002445 0.026548157 -0.036654644 0.2319391 0.03948999 -0.0442982 0.036151778 -0.08324636
-0.030807983 -0.17188425 0.054673854 0.07235323 0.03772095 0.043886974 -0.11426853 0.10340207
-0.17677242 -0.1918844 0.04780669 0.0641602 -0.13191944 0.05309663 0.0005838079 0.15933074
-0.2329254 0.040741134 0.16533898 -0.08201498 0.29485992 -0.108211674 0.19585572 -0.21411778
-0.079185635 -0.09122066 0.37127605 -0.10624694 0.16638461 0.106744215 0.24021535 -0.16222383
-0.124621406 -0.11372181 0.031582583 0.04109151 -0.044116225 0.015996048 0.08814031 -0.04262555
-0.029113872 0.36049274 0.008429292 0.10456598 0.013735656 -0.17488252 0.114011355 -0.29900348
0.025233382 0.37279865 0.19009753 0.30119172 0.03808935 -0.36206684 -0.09652235 -0.2157793
0.14331004 0.016076757 0.14778528 -0.047184326 -0.13742074 -0.17351533 -0.09296976 -0.044649992
0.020928295 -0.09089358 -0.07738188 0.28004643 -0.08866188 0.022900997 0.067527905 0.2949122
-0.08978075 -0.037090737 -0.05118273 0.35172087 0.15772872 -0.09430259 0.23560812 0.007029696
0.065491855 0.11156942 0.06494412 0.10558245 -0.11801266 0.10031602 -0.07584646 0.07287449
0.030003373 0.085795574 0.05348615 0.03809153 -0.19340143 -0.1004427 -0.07267173 -0.06990363
0.1375851 0.08441618 0.070810094 -0.13279164 -0.2169736 -0.059444606 0.3035689 0.03816411
0.07023231 -0.19335057 0.085110836 -0.08795796 0.08661733 -0.124718636 -0.08463728 -0.07187963
-0.2056258 -0.11836056 -0.092141144 -0.07968898 0.44832927 0.26503742 0.025943717 0.03465123
0.013940833 0.16153546 0.024388159 -0.06185482 -0.077366784 -0.08369778 0.021157783 -0.2426651
-0.013838789 -0.24649726 0.06918309 -0.14716172 -0.057329368 -0.12587574 -0.20659855 -0.0264813
-0.07329273 0.12529983 -0.018241774 -0.10958473 0.12313809 -0.25898674 -0.05751785 -0.0030958243
-0.07017888 -0.16638571 0.062964216 0.024936851 0.3171063 -0.1445871 -0.079534926 -0.13519464
00000000: b141 0cbe 6746 983d 7118 bdba 1862 5c3e
00000010: ce05 ae3d fb1d 0d3e fb05 85bc 2afe f93d
00000020: 310a 643e 7547 683d 32e2 aa3d 5d76 e8bd
00000030: ee94 78be 107c cd3c 22e1 1abe 9ebf e3bd
00000040: c451 b03d 419c 4f3d e44a a1bd de53 ff3c
00000050: 9177 95bd d82e 63be 2399 1dbd 6385 0ebe
00000060: 8906 033e 2c4e 003c de4c 91bd b316 abbc
00000070: a30b 43be d2ac b3bc 5be3 89bb d11b bebd
00000080: be0c 6c3e 3b04 223d c7cf 85bd 8b03 1b3d
00000090: b044 993e b3e4 cbbd 76de 9bbe 15d4 b3bd
000000a0: 3867 d03d d11b 833d 2c59 84be 600b ee3d
000000b0: 30a0 1bbe 48cd 1bbe e126 3abd 3480 bcbd
000000c0: 0a49 2ebe a171 4fbb 2236 b2bc a0c1 303e
000000d0: 0fa6 b03e 8065 babe 9fc5 0c3e d0e0 d2bd
000000e0: fc1f 0b3e 4f77 9bbc c453 c4bb f440 a4bd
000000f0: 8063 b73c f8e9 c0bd 6318 9b3c 8d40 8a3e
00000100: 98a3 c4bd b6bd fabd 0848 543e 9c60 853e
00000110: b7c3 d93d 856b 1f3d e134 48be 9153 0bbe
00000120: ba74 a93d 38bb 7f3d a70f ccbd aa9b 11be
00000130: f363 91bc 5724 bbbd 8ba2 23be 0801 f8bd
00000140: 8f59 efbd e07f 6bbd 8132 963d 1864 f23c
00000150: 88b9 30bd 70f6 fabd 9d54 01be a525 bb3d
00000160: dc04 ebbc dfb3 b0bd a3e1 96bd 64dd 283e
00000170: 0d89 03be 8502 8ebe f462 373e 4778 5e3c
00000180: 9ed9 ccbd 857b d93c 2e23 16bd 7281 6d3e
00000190: 41c0 213d 0872 35bd e313 143d 117d aabd
000001a0: 0661 fcbc 6d02 30be b1f1 5f3d ee2d 943d
000001b0: 4881 1a3d d4c2 333d 9e05 eabd 77c4 d33d
000001c0: d403 35be 587d 44be f3d0 433d 6c66 833d
000001d0: e415 07be da7b 593d af0a 193a 9927 233e
000001e0: ff83 6ebe 2de0 263d 9f4e 293e 78f7 a7bd
000001f0: e1f7 963e 159e ddbd 678e 483e b141 5bbe
00000200: 142c a2bd e6d1 babd e517 be3e ff97 d9bd
00000210: ba60 2a3e b69c da3d 03fb 753e 011e 26be
00000220: 8239 ffbd fbe6 e8bd bd5c 013d 924f 283d
00000230: 37b3 34bd 250a 833c e882 b43d 2198 2ebd
00000240: 3780 eebc 8192 b83e 031b 0a3c b026 d63d
00000250: 840b 613c 6714 33be c97e e93d fc16 99be
00000260: 3db6 ce3c 77df be3e eda8 423e cd35 9a3e
00000270: 9403 1c3d d360 b9be 83ad c5bd 40f5 5cbe
00000280: debf 123e 67b3 833c 0655 173e 5a44 41bd
00000290: 06b8 0cbe 01ae 31be ee66 bebd e9e2 36bd
000002a0: d171 ab3c 6a26 babd 647a 9ebd 3f62 8f3e
000002b0: 5c94 b5bd df9a bb3c 124c 8a3d bbfe 963e
000002c0: f8de b7bd 75ec 17bd fba4 51bd c214 b43e
000002d0: a383 213e b721 c1bd 4143 713e 5d59 e63b
000002e0: 9820 863d 827e e43d 6c01 853d 9d3b d83d
000002f0: 9fb0 f1bd 7c72 cd3d 6455 9bbd 383f 953d
00000300: a2c9 f53c 97b5 af3d 4b14 5b3d dd05 1c3d
00000310: 060b 46be e7b4 cdbd ead4 94bd a229 8fbd
00000320: 1ce3 0c3e 64e2 ac3d e204 913d 88fa 07be
00000330: 542e 5ebe 307c 73bd 626d 9b3e f851 1c3d
00000340: f5d5 8f3d b1fd 45be 974e ae3d 4e23 b4bd
00000350: 6d64 b13d 7c6c ffbd 4f56 adbd a135 93bd
00000360: 928f 52be 0567 f2bd 7fb4 bcbd fa33 a3bd
00000370: 6a8b e53e fcb2 873e eb87 d43c 73ee 0d3d
00000380: 1768 643c 8d69 253e adc9 c73c 7b5b 7dbd
00000390: 7a72 9ebd be69 abbd 1653 ad3c 337d 78be
000003a0: 17bc 62bc c769 7cbe ddaf 8d3d 90b1 16be
000003b0: 33d2 6abd 92e5 00be 928e 53be 50ef d8bc
000003c0: 801a 96bd 994e 003e c66f 95bc f56d e0bd
000003d0: d32f fc3d e999 84be d697 6bbd 50e3 4abb
000003e0: f2b9 8fbd 0461 2abe 62f3 803d 5e48 cc3c
000003f0: c25b a23e a40e 14be 35e3 a2bd 7770 0abe

fc3.bias f4 [10]
-0.006284568 0.15398847 -0.0060874727 0.026104841 -0.062518656 -0.09471107 -0.013418508 0.087818615
-0.002327682 -0.060985036
00000000: c7ee cdbb 27af 1d3e 6c79 c7bb d2d9 d53c
00000010: c809 80bd e1f7 c1bd 4dd9 5bbc 3fda b33d
00000020: 068c 18bb 72cb 79bd
