model.onnx (onnx, 179420 bytes, 10 tensors)

conv1.weight f4 [6, 1, 5, 5]
00000000: 63fa 873e 2561 813d 624a 99bd b8f0 78be
00000010: 8fec 4cbe 07b2 f0bd f643 dcbd 3915 77be
00000020: a20c 60be c9dc adbe 1ac6 b0bb 1e96 97be
00000030: e580 9cbe b280 8fbe 954c 89bd e960 38be
00000040: 6175 34be 1b3b 51be ac4d 6cbe ee96 15bc
00000050: cda3 9d3e 6955 403d 00c3 9c3d 0af9 903e
00000060: 61b0 3f3e 833c 853d 22d3 7d3e 45b5 353e
00000070: 3c67 a43e c692 a43d d61c d43d dcae 853e
00000080: 03fa e83e 351b ee3e e53d bb3e ff8f cfbd
00000090: 4576 2dbd 8958 0dbe 69e1 8f3e 6ace c33e
000000a0: ed1f a0be a7ae 9cbe f2f7 e2be f333 92be
000000b0: b4c9 f9bd dacb 6dbe 4a7b 70be 4a0b 9dbe
000000c0: 5fee a4be 62b3 823d a14d c6bd fd25 86b9
000000d0: 114c e23e b1f8 9e3e dd0a 95bb 94f2 c1be
000000e0: 60e7 a43e f1d8 953e 1c69 573e ae68 05be
000000f0: b768 93bd 1719 a83e fb43 1b3f e59b 16be
00000100: ad9f d5be 5557 e0bd 6276 b13e a199 a63e
00000110: bf83 463c 5e98 cdbe 4eb5 b63d 0e22 b13e
00000120: 7f57 2d3e 51c4 57be 3c65 2ebe db33 b6bd
00000130: 96b8 68be e0d1 7fbe db41 e4bc f4d8 bebc
00000140: d8b1 5cbe 1b44 37be f473 8bbe 0af4 263e
00000150: 4fbb 513e afba d3bd 9c3a 98be 7dd4 003f
00000160: 8a95 a83e 4a4e f43d 6dcd 4b3e 19cf f73e
00000170: 3236 cc3e c0f5 ca3d 3c43 99be f12a 9c3e
00000180: b62b a13e 0965 9fbe 404d dbbe ea7a 5abe
00000190: 9425 c33e 0ab4 013f d97b 853e ca94 6e3e
000001a0: 7fab b13d 1de9 a73e 665f 8cbb cb45 803e
000001b0: b1f3 d23b 35ac 8e3d f8ea 91be effb e3bd
000001c0: d7ad 66be 6a5f 66be 9f14 2cbe 1100 83be
000001d0: 41f5 a3be df3f b0be ad7d e3bd 73e8 a1bd
000001e0: 4984 f13d bb26 663d 5d68 2c3c 4324 b73c
000001f0: 1211 04be 1abe 133d c851 93be b7c5 5dbe
00000200: 4b83 72be 7314 85bd 97c8 493d e92a 0abe
00000210: bb98 89bd 8f80 4ebd a217 b3be c4ad 9d3e
00000220: cf03 32bd c57f cd3d a606 7cbe 8a13 6cbe
00000230: 7a86 bf3e 4283 c03e 50b8 c4bd 0a5a 5fbe
00000240: 07e8 0c3e 713f a03e db98 da3e 16b5 61bd
00000250: 3bcb 9cbd 28d2 ad3d
0.26558217 0.06317357 -0.074848905 -0.24310577 -0.20012115 -0.11752706 -0.1075515 -0.2412919
-0.21879819 -0.33957508 -0.0053947093 -0.29606718 -0.3056709 -0.28027874 -0.0670406 -0.18005718
-0.17622901 -0.20432703 -0.23076504 -0.009130223 0.30789033 0.046956453 0.07654381 0.28315002
0.18719627 0.06505682 0.24787572 0.1774493 0.32110012 0.08035807 0.103570625 0.2610997
0.45503244 0.46505132 0.3657066 -0.10134887 -0.04234912 -0.13803305 0.28101662 0.3824342
-0.31274357 -0.30602 -0.44329792 -0.2855526 -0.12196675 -0.23222294 -0.23484531 -0.30672675
-0.32213113 0.06381871 -0.09682775 -0.00025586775 0.4419866 0.3104911 -0.004548414 -0.37880385
0.32207775 0.29267076 0.2103619 -0.13028213 -0.07197707 0.32831642 0.60650605 -0.14707907
-0.41723385 -0.10954157 0.3466063 0.32539085 0.012116372 -0.4015531 0.089213 0.34596294
0.16927908 -0.21070983 -0.17030805 -0.088966094 -0.22726664 -0.24982405 -0.027863434 -0.02329681
-0.21552217 -0.17897074 -0.27236903 0.16304031 0.20481609 -0.103383414 -0.29732215 0.5032423
0.3292659 0.11928995 0.19902582 0.4840019 0.39885098 0.09910154 -0.29934108 0.30501512
0.3147866 -0.3113177 -0.42832375 -0.2133595 0.38114607 0.5066534 0.2607105 0.23298946
0.086752884 0.3279504 -0.0042838333 0.25053248 0.0064377417 0.0696644 -0.2849958 -0.11132037
-0.22527252 -0.22497335 -0.16804741 -0.25585988 -0.3202305 -0.3442373 -0.11107955 -0.07905664
0.117928095 0.05618928 0.010522929 0.022356158 -0.12897137 0.036069967 -0.28773332 -0.21657453
-0.23682897 -0.06498041 0.049263563 -0.13492931 -0.06718584 -0.05041557 -0.34978968 0.30796635
-0.043460663 0.10034136 -0.24611911 -0.23054329 0.37407285 0.37600142 -0.09605467 -0.21811691
0.13760386 0.31298402 0.42694744 -0.055104338 -0.07655951 0.0848735

conv1.bias f4 [6]
00000000: 26e6 aabe 6234 393e ad66 813d ce58 92bd
00000010: 2f0a 9abc 3196 ef3d
-0.33378714 0.18086389 0.06318412 -0.071458444 -0.018803684 0.116985686

conv2.weight f4 [16, 6, 5, 5]
00000000: 2e5a 11bd fc0a 643d 28c6 c63d 080d 4b3d
00000010: b9d4 933d 2ec2 23be 1322 9bbd 367a 263c
00000020: 4b04 733e 0b72 8d3e 109c b5bd 10b4 86be
00000030: 238b 81be 8c9c abbd 6e13 8c3d e00f f5bd
00000040: 0c3b 11be 37ac 33be 05f5 1abe e343 07bd
00000050: 77b4 43bd 647a 0a3e 6edf 5b3d 59c1 c8ba
00000060: c964 9fbd 1707 77bd 31a0 0abe 3078 e8bd
00000070: 7e82 383d 0bca a8bd 1516 9538 f2ac 77bd
00000080: 3b56 41be eef0 0cbe a82a 9dbc a515 7d3d
00000090: 38ac 553e aaf0 833d d55a 30be e659 b5bd
000000a0: 3397 eebc 284e 6f3c 96f8 2d3e 01be 253e
000000b0: de93 a53c c909 323d 51bf 8cbc d886 b93c
000000c0: 446c f63d 1f0e 1a3d f282 c7bd 5521 01bd
000000d0: 8e59 2cbd cb9b 913d cd55 5a3d 0110 7fbd
000000e0: 90da babd b16d 80bd d6f7 f0bc bf9c 85bd
000000f0: 9595 a53d ecb1 cfbd f607 a8bd 9507 38be
00000100: 9dad 8bbd d8f7 ed3d 7aea 9e3d 0b04 cbbd
00000110: 538b 90bd cd1a 9cbd 8b99 553d 51de 7dbd
00000120: dac5 31bd 2a17 dabc c497 ca3c 9e40 613d
00000130: 8c1d 39bd 518a 7f3d 8091 303c 9453 29be
00000140: f7f4 043c 3fff afbd 2a0e a3bc 0c89 a53d
00000150: d413 133d ff96 793a b294 9fbd 30eb 16be
00000160: ffbe 7cbd cae5 983d 94c0 3cbc d067 623d
00000170: 98d0 56bd 0b74 2cbd a902 3d3d 1be0 97bc
00000180: 9648 b3ba f7a0 003d 319d 69bd a184 0cbd
00000190: 864b 2c3c 75fb a9bd c565 143d bb6b 1a3d
000001a0: 9bb2 31bc 7eb7 86bd c128 1fbc d25a c1bd
000001b0: 3637 70bd 2450 63bb 8d33 3cbc 4aa5 2e3d
000001c0: d477 fcbd 8e8f bdbd 46a6 c8bd 01b1 dd3c
000001d0: fe7c 073d 1dd1 3f3d 90ab 1f3e 7dc3 22bd
000001e0: 1d6c c23d 1720 6bbd f814 b43b a8e0 313d
000001f0: 4ff2 173b 745a a23d 08a7 a43d 9b16 833d
00000200: 36fb 8ebc baae 04be b755 903d b400 8f3d
00000210: bade 453e 192d 533e 4db9 7bbc 09b3 d0bb
00000220: 1ed2 c8bd fb32 d93d 6124 503e 3736 313e
00000230: eb9a acbc f21e 9dbb bd1e 9bbd 9f67 dc3c
00000240: 991d 443d 1ed6 0a3d 72c3 e8ba 0fc3 21be
00000250: a2a0 abbd 8efe 21bd 3a39 a73d d839 033c
00000260: e63a 32be 3886 6fbe d8e6 92bd 61a1 f73d
00000270: c638 173e c9f3 25be 13c7 1cbe a0a2 ecbd
00000280: 4fb1 2d3e 017b 443e 584d ebbd f3bf 80bd
00000290: 2268 b33d c2b9 5e3e 316a f83c 3524 1cbe
000002a0: db69 4a3c a871 713d a2de 2f3e 3c3b c3bd
000002b0: 7f08 80bd 7cfa 4fbd d691 b63d b666 79be
000002c0: e6f8 63be ed51 cdbd b253 f7bd fbd5 1ebd
000002d0: f6cd dfbd 57c4 03be def6 54be e654 74be
000002e0: 3ad7 c53d 18ed fbbd a143 06be bd8d 32be
000002f0: e92e 83bd b761 bcbb 75c5 80be 967a 3abe
00000300: 1d3f 5bbc 46e7 20be b831 25bd 81d7 8bbe
00000310: e972 babc d518 a8bc c990 123d 8a31 f4bc
00000320: 327d 4a3d 4e2d 2ebd 87bf ac3d 991e 6e3e
00000330: aacb 713d 427a c1bc 13e6 1dbd 7dc7 5f3e
00000340: 99b8 bb3e 7e5a c13c 86ea 04be bed3 4dbd
00000350: 4b82 6d3e 2855 823e 2d14 13bb 4eb9 20be
00000360: 46a4 c13d ada6 8b3e 8f1b 7c3b 5d6f 3abe
00000370: 154e 20bd be67 d83d 03e3 073d 463b 863d
00000380: 9b96 7ebd 5e8b a73c 4809 26be c081 20be
00000390: b53d 6d3d 6d94 8a3d 7c35 89bd 615d 68be
000003a0: 841d 11be 5290 8a3d 31c7 b13d d7ab ecbd
000003b0: ac5f 1fbe 16c7 3bbd 572a 0ebd e2e2 89bd
000003c0: 995e 163d 910b 0e3d e35f 0f3d ddc4 10be
000003d0: 9949 9fbb baaf 5c3d 03c8 293d 0c5b 1ebd
000003e0: f404 fabd c769 97bc 6d24 dbbc 21dc b5bd
000003f0: 7b64 26be a326 60be fbaf 7c3d 4e7e d7bc
-0.035486393 0.055674538 0.09705764 0.049572974 0.07218308 -0.15992042 -0.075748585 0.010160973
0.23732106 0.2762607 -0.08867657 -0.26309252 -0.25301465 -0.08379468 0.068396434 -0.119659185
-0.14182681 -0.17546163 -0.1513253 -0.033023726 -0.047779527 0.13523251 0.053679876 -0.0015316411
-0.07782895 -0.060309496 -0.1353767 -0.11351049 0.045046322 -0.08241662 7.108987e-05 -0.060467668
-0.1888055 -0.13763782 -0.01918538 0.06178822 0.20866477 0.064423874 -0.1722215 -0.088550374
-0.029124832 0.014606036 0.1698936 0.16185762 0.02021211 0.043466363 -0.01718107 0.022647306
0.12032369 0.037611123 -0.09741773 -0.03152593 -0.042077594 0.07109793 0.053304482 -0.062271122
-0.09123719 -0.06270922 -0.029415052 -0.065240376 0.08085171 -0.10141358 -0.082046434 -0.17971642
-0.068202235 0.11619538 0.077595666 -0.099128805 -0.07057824 -0.07622299 0.052148383 -0.061979596
-0.043401577 -0.026622374 0.02473057 0.054993264 -0.045194194 0.06238777 0.010776877 -0.16535789
0.008115045 -0.08593606 -0.019904215 0.0808278 0.03590758 0.00095210964 -0.07792033 -0.14738154
-0.061705586 0.07465704 -0.011520524 0.055274785 -0.052445024 -0.042102855 0.046145115 -0.018539479
-0.0013678249 0.031403508 -0.057034675 -0.034306172 0.010516053 -0.08299915 0.036229867 0.037700396
-0.0108458055 -0.06577967 -0.009714306 -0.09441151 -0.058646403 -0.0034685219 -0.0114869 0.0426381
-0.12327543 -0.092558965 -0.09797339 0.027061941 0.033078186 0.046830285 0.1559279 -0.039737213
0.09493277 -0.05740365 0.0054956637 0.04342714 0.0023185199 0.07927409 0.08039671 0.06400796
-0.017453771 -0.12957278 0.07047599 0.06982556 0.19323245 0.20622672 -0.015364003 -0.006368999
-0.09805702 0.10605427 0.20326377 0.17305838 -0.021069964 -0.0047949487 -0.07574222 0.02690488
0.04787979 0.033895604 -0.0017758443 -0.15797065 -0.08380248 -0.039549403 0.08165212 0.0080093965
-0.1740528 -0.23391044 -0.07172936 0.120913275 0.14767751 -0.16206278 -0.15310316 -0.11554456
0.16962169 0.19187547 -0.114893615 -0.062866114 0.08760096 0.21750548 0.030324074 -0.15248187
0.0123543395 0.05894628 0.17174771 -0.095327824 -0.062516205 -0.05077599 0.08914535 -0.24355587
-0.22262916 -0.10025392 -0.120765105 -0.038778286 -0.10927956 -0.12867866 -0.20797297 -0.23860511
0.09660192 -0.123010814 -0.13111736 -0.17436881 -0.06405432 -0.005748953 -0.25150648 -0.18210825
-0.013381747 -0.15713224 -0.04033062 -0.27312854 -0.022759872 -0.020519653 0.03578261 -0.029808778
0.0494358 -0.042523675 0.084349684 0.2325386 0.05903212 -0.023617867 -0.038549494 0.21853442
0.36664274 0.02360272 -0.12980089 -0.05025076 0.23194234 0.25455594 -0.0022442446 -0.15695688
0.09455161 0.272756 0.0038468575 -0.18206544 -0.039136965 0.10566662 0.03317548 0.06554274
-0.062155347 0.020452198 -0.16214478 -0.15674496 0.057920177 0.06766591 -0.066996545 -0.22691871
-0.14171416 0.06765808 0.08680571 -0.11556213 -0.1556384 -0.04584416 -0.034708347 -0.067327276
0.03671131 0.034679 0.035003554 -0.14137597 -0.0048610684 0.053878523 0.04145051 -0.038661048
-0.12207976 -0.018483056 -0.026750768 -0.08879877 -0.16249268 -0.21889739 0.061691266 -0.026305344

conv2.bias f4 [16]
00000000: 1a7f 3cbd 9571 573d c42a 1ebd 2dcd 9c3d
00000010: 30a9 8d3c 9c25 aa3d 02e7 aeba 5cda 8e3c
00000020: d748 0a3d f0f6 01bd c2bc e0bd 13d1 183d
00000030: 4287 813d efe8 8b3c db91 9e3c bfbd eb3c
-0.04601965 0.052598555 -0.038615003 0.07656322 0.017292589 0.08307955 -0.0013343992 0.017438106
0.03376087 -0.03172964 -0.10973503 0.037308764 0.063246265 0.017078845 0.019356659 0.028777001

fc1.weight f4 [120, 256]
00000000: 24d8 a9bc d338 afbd 6973 af3b 93e4 8c3c
00000010: 027a 8abd bc93 10bd bc60 583d f6ac 143c
00000020: c837 5fbb db48 74bd b255 853d 7207 c73d
00000030: 1cd9 c33d c32b ecbc 9f74 ccbc be7e dd3c
00000040: e1db eebd e29c 09bd 869d 823d 4a07 aebb
00000050: 6961 f8bd 8598 19bd 378c 53bd 4663 393c
00000060: 1657 1cbe 540b 733d 0819 2fbd 9ed9 96bd
00000070: 5f82 52bd a75b 3e3d 1477 e8bc c663 f13c
00000080: 13ce 903d 9fb0 bc3d 5ee2 b6bc d60f a1bc
00000090: 3b37 ce3c 7639 093d 44e9 2c3c e0d1 903d
000000a0: e59e 433d 47e5 c63d a05f 81bc 72a9 b5bc
000000b0: 2369 d13d 4970 923c 87ae f4bc cbf3 d7bc
000000c0: 755b 4d3c 12ba 93bd f8c9 d83a e4b8 81bc
000000d0: e8d3 a0bd 4d30 4c3d 54d3 f2bc 4238 1c3c
000000e0: 6941 023d 16cc 33bd ef7e eebb 27a2 063d
000000f0: e3ff 253d 19ae e9bc bd39 aa3d 0ab4 9e3c
00000100: bbd4 9f3d fda3 84bd 2883 01bc 70d5 273c
00000110: 3475 8abd efaf 2ebd 9707 81bd ba35 9b3c
00000120: cead 3bbc 3b5e 0b3c 4baf d7bc e8ae febc
00000130: 5c63 7c3d 0646 d53c d456 8fbd ff92 3abd
00000140: 345b 10bd ff03 1fbd 31f3 86bc 3b87 893d
00000150: 687e 15bd a405 4b3d b089 153a 8dca ad3c
00000160: aece 25bc 6be3 71bd f906 b03c 1da7 2abd
00000170: 0f71 383d b784 5bbd 6b20 3d3d 78ce 4a3d
00000180: 99ab 03bd 626c 4a3c 78b1 e73c 3b26 d0bc
00000190: ac23 133d 6ab4 ba3c 27d2 89bd 1b57 ddbc
000001a0: c8da acbd 9f33 81bc 038a 4c3d 3ee6 12bd
000001b0: b3f4 933c ec7a 9abc f6e3 67bd ec91 983c
000001c0: 1bd2 97bd ace2 ccbc 2ae7 82bd 96f5 0d3d
000001d0: 36f2 89bb 56e9 1b3d 9dd8 9a3d 0c52 2f3d
000001e0: 7262 01be b93a f3bd eff7 45bb 94c3 20be
000001f0: c099 0ebd 5055 6d3d d82d 1e3c ba12 ddbc
00000200: b998 aabd 6a92 26bb f780 0e3d ae75 c3bc
00000210: e10a 2cb9 1a06 8ebd 942c d1bd 101c d0bc
00000220: 1863 44bd 6067 683c f8eb d1bc 390f ad3d
00000230: e070 56bd e6f2 09bd ecfc 8c3d 9ea9 c53d
00000240: 961b 4cbd 75c9 1cbc 9953 453c 9aa0 873d
00000250: 49ba 1d3b 614e 703c 5143 f33c e4dd 1fbd
00000260: 9266 6d3d e8df 1e3d 2a3d 7c3d 0741 873d
00000270: 686c 493e 9fb6 f03d cdec 9bbd b514 96bb
00000280: 94da 2e3d 6450 8f3d 350a 17bd d7d0 e6bc
00000290: b73c b63d 00a3 7e3d 1608 2ebc a4a0 82bd
000002a0: 6066 b53d b625 d23c 3fab bf3c fac7 803c
000002b0: 435b bebc 45ca 973d adb8 6cbc 8f4d 5abd
000002c0: 6fa3 52bd 2432 77bc 41d0 65bb fd95 74ba
000002d0: 2465 463c ec5e 4fbd 2add 0d3c a17a 8b3d
000002e0: 06ea 26bd f10f 27bc d081 e2ba 7a5b b8bd
000002f0: 9518 bb3c e9f4 04bd 7f23 cf3c b9f1 313c
00000300: 2c7d 1a3d df25 ae3d 5f54 40bd 26df ccbb
00000310: 73e4 95bd 39cd 24ba 10c9 e13c 2ba1 8ebd
00000320: 6b93 6cbb bfb5 883d f667 1a3d 91a1 1a3d
00000330: f075 ab3d 3854 983d 3823 d23d 1fcf 7bbd
00000340: ba96 8a3c ecf0 ce3d b0a5 1a3d 8a48 9a3d
00000350: dee5 7a3d b887 273d afcb 223d a618 9ebc
00000360: cc6a 123e 1c5d d03c c379 3bbd 3a14 f5bc
00000370: fa08 1fbd 2b7c cdbc aaa7 b6bd 901d cabc
00000380: 4448 6d3d 851e 733d 5723 0c3c e88a c83d
00000390: 20ae 0cbd dcf9 c6bc b344 3c3d 7c53 83bc
000003a0: c7cf e6bc 5f6f 72bb 0f5c d63c 8585 b0bd
000003b0: 9950 86bd 1ad8 33bd 2dfe 893c 8644 db3c
000003c0: ef7e 5f3c 422b f2bc c542 c33d 65f0 59bc
000003d0: d2fc cc3c 73e3 0c3b a7db 81bd aaf0 1bbe
000003e0: 327d cabd c982 d4bc f060 97bd 7810 19be
000003f0: 656b 58bc 8eb5 c13c 2b72 723d dfa0 11bc
-0.020732947 -0.0855576 0.005354334 0.017198836 -0.067615524 -0.03529714 0.052826628 0.00907444
-0.0034060348 -0.059639793 0.06510486 0.09718217 0.09562895 -0.028829461 -0.024957953 0.027037974
-0.11663032 -0.03359688 0.063777015 -0.0053109275 -0.121279545 -0.03749897 -0.05164739 0.011315173
-0.15267596 0.059336975 -0.04274848 -0.07365726 -0.051393863 0.046474125 -0.028377093 0.029466521
0.070705555 0.09213375 -0.022324737 -0.019660871 0.02517282 0.033502065 0.010553662 0.070712805
0.047758956 0.097117 -0.015792668 -0.022175524 0.10225131 0.017875807 -0.029868377 -0.026361367
0.012534012 -0.072132245 0.0016539684 -0.015835233 -0.07852918 0.04985075 -0.029641785 0.009534897
0.03180066 -0.043895803 -0.0072783153 0.032869484 0.040527236 -0.028525399 0.08311794 0.019372959
0.07804247 -0.06476591 -0.007904805 0.010243759 -0.06760636 -0.042648252 -0.06300276 0.018946517
-0.0114550125 0.008506353 -0.026328703 -0.031089261 0.061618194 0.026034366 -0.06998983 -0.045550343
-0.035243228 -0.03882217 -0.016473385 0.06715246 -0.036497504 0.049565926 0.0005704416 0.021214748
-0.010120077 -0.059054773 0.0214877 -0.041663278 0.045029696 -0.053593364 0.046173494 0.04951331
-0.03214607 0.012354942 0.028282866 -0.025408855 0.03592269 0.022791106 -0.067295365 -0.027019074
-0.08440167 -0.015771685 0.049936306 -0.035864107 0.018061018 -0.018857442 -0.056613885 0.018624268
-0.07413121 -0.02501043 -0.06391747 0.034658037 -0.004209782 0.038064323 0.07560847 0.042802855
-0.1263521 -0.11876435 -0.0030207594 -0.15699607 -0.034814596 0.05794269 0.009654485 -0.026986469
-0.08329911 -0.002541686 0.03479096 -0.023859825 -0.00016407251 -0.069347575 -0.10213581 -0.025404006
-0.047946066 0.014184803 -0.025625214 0.08450169 -0.05235374 -0.03367891 0.068841785 0.096514925
-0.049830996 -0.0095695155 0.012043857 0.06622429 0.0024067333 0.0146671245 0.029695185 -0.03902997
0.057959147 0.038787752 0.061581768 0.066042 0.1967026 0.11753582 -0.076135255 -0.004580105
0.04268892 0.06997755 -0.03687497 -0.028175754 0.08898299 0.062167168 -0.010622045 -0.06378296
0.08857417 0.025652748 0.023397086 0.015720356 -0.023236876 0.07411627 -0.014448327 -0.053296622
-0.051425394 -0.015087638 -0.0035066756 -0.00093302113 0.012109075 -0.050627634 0.008658687 0.06810499
-0.040750526 -0.010196672 -0.0017281119 -0.09001823 0.02283887 -0.032460127 0.02528548 0.010860854
0.03771703 0.08503317 -0.046955463 -0.0062521873 -0.07318964 -0.0006286684 0.027561694 -0.06964334
-0.003609861 0.0667529 0.0376968 0.037751738 0.08372104 0.074379385 0.10260624 -0.061476823
0.016917575 0.10104546 0.03775567 0.07533367 0.061254375 0.040900916 0.03974503 -0.019298863
0.14298552 0.025435023 -0.045770418 -0.029916871 -0.03882692 -0.025083622 -0.08918698 -0.0246723
0.057930246 0.059355278 0.008553348 0.09792119 -0.034345746 -0.024289064 0.045963954 -0.01603102
-0.028175248 -0.0036992652 0.026166944 -0.08619217 -0.065583415 -0.043907262 0.016844833 0.026766073
0.013641103 -0.029561643 0.0953422 -0.013301943 0.025022898 0.0021497875 -0.063407235 -0.15228525
-0.0988716 -0.02594127 -0.07391536 -0.14947689 -0.013209199 0.023646142 0.05919091 -0.008888452

fc1.bias f4 [120]
00000000: c9ac 63bc 57b5 61bd 1148 b6bc bc0c 78bd
00000010: 9aa1 e93c 8481 743c 7c7a 7dbb a6f8 72bd
00000020: 36d0 20bd ad31 843d cfa1 183d 39dc 49bb
00000030: def1 ae3b 0a39 883c 6402 773d 917d 183d
00000040: 3701 a2bc bf40 793d 515a 9bbc bd66 29bd
00000050: 3a80 0a3b eff6 373b 2f44 17bd 95b6 183d
00000060: 8cf1 febc b8da 953d 4917 c0bc e971 8cbd
00000070: d5f3 023c 6b42 273d c6bd 693d 1c98 6b3d
00000080: 9707 ddbc 7a35 043c 0cff 7f3c 945c 3abb
00000090: a608 153b b69f 39bd 231c 2fbc ff71 24bd
000000a0: b464 663d 9f20 f9bc ff1b 17bc f209 4b3c
000000b0: 5e41 143c 497d 0a3d 32cc 673c 69c3 fd3c
000000c0: 5e07 32bd bf9b 60bd 9385 103d f35b 263d
000000d0: 447d c4bb a743 2dbd c1a0 9d3c 7337 1dbd
000000e0: 3dcb c2bc 41c3 98bc 927b 433c fedc 16bd
000000f0: 98d3 41bc 0cc0 21bd 64ab 363d 4060 5c3d
00000100: 044f e83b 3945 0f3d beb7 553d 3eea f4bc
00000110: 9bfb a1bc 1ccc 04bd 41a3 213d 03ff 353c
00000120: 3a30 933c a321 28bd a937 62bd f877 4fbc
00000130: 68f4 57bc 1411 60bb 90f4 433d baf2 543d
00000140: a277 c73c a595 c33c 0661 073d 29d8 423d
00000150: 0766 3c3d edd1 a83d 2ddf 58bd bf32 2b3d
00000160: 5872 883c 0f9d dfba 7c96 e23b 0061 ce3c
00000170: 2172 0dbd a676 23bd a438 ac3c 06b6 793d
00000180: c6ce 68bd f0ee 923c 266e afbc 2f46 61bd
00000190: 13f3 563d 4c04 1cbc 4bd2 783d 6e3e b83b
000001a0: 0d1d 563d c7ac 593c 5c19 973c 77c4 673d
000001b0: 58be 89bd ad05 78bb 73a8 183d 425f d63c
000001c0: a045 9d3a c935 c63c 64f2 c93b 134e 013d
000001d0: 305f 413d 34b4 e5bb f835 1cbc 32a3 96bd
-0.013896176 -0.05510458 -0.02225116 -0.06055902 0.02851944 0.014923457 -0.0038677743 -0.05931916
-0.039261065 0.064547874 0.037263688 -0.003080143 0.0053388914 0.01662876 0.060305014 0.037229124
-0.01977597 0.060852762 -0.018963965 -0.041357744 0.0021133558 0.0028070768 -0.03693026 0.0372835
-0.031121038 0.07317108 -0.023448603 -0.06857664 0.007992704 0.040834825 0.057065748 0.05751811
-0.026981158 0.00806939 0.015624773 -0.0028436529 0.002274075 -0.045318328 -0.010687861 -0.040147778
0.05624838 -0.030411063 -0.009222983 0.012392508 0.009048788 0.033810887 0.014147805 0.030976968
-0.043464057 -0.05483603 0.035283636 0.040615033 -0.005996378 -0.042300846 0.019241692 -0.03838296
-0.023778552 -0.018647792 0.011931317 -0.03683185 -0.011830233 -0.03948979 0.044597045 0.05380273
0.0070894975 0.034978125 0.052177183 -0.029896852 -0.019773295 -0.032421216 0.03946233 0.011108163
0.017967332 -0.041047703 -0.055228863 -0.01266288 -0.01318083 -0.0034189867 0.047840655 0.051989295
0.024349038 0.023875067 0.033051513 0.047569428 0.04599574 0.08243165 -0.052947212 0.041796442
0.016656086 -0.0017060357 0.006914912 0.025192738 -0.03453267 -0.039908074 0.021023102 0.060964607
-0.05683782 0.0179362 -0.021414828 -0.054998573 0.052477907 -0.009522509 0.060747426 0.0056226766
0.0522738 0.013285822 0.01844471 0.056583848 -0.06725758 -0.003784518 0.03727002 0.02616847
0.0011998899 0.024195569 0.0061629284 0.031568598 0.04720992 -0.0070100073 -0.0095343515 -0.07355346

fc2.weight f4 [84, 120]
00000000: 1ce0 77bd df24 0c3d 5f6d 7bbc 3bc4 25bd
00000010: e82c 773d 6041 4bbd 1fa8 9fbd 8b56 a4bd
00000020: ccaa 9c3d 1c25 f33d b0df 93bd 8914 d3bd
00000030: 3c1e 23bd 7636 d53d 6329 b5bc 7712 a23d
00000040: 7206 db3d e562 37bd ffa9 08bd 630a e63c
00000050: 0f7b df3d 6a5c ce3d 9b5f a13d 9f11 8f3d
00000060: f991 aabc 5505 5d3d 7bff e8bd b73c babd
00000070: 3ac3 76bd f743 7bbc 40c8 103b 4284 f63c
00000080: 7dac fc3d f51e 99bd bb95 8dbd 080a 2f3d
00000090: 7ddf 82bc f02c a73d 97c0 b23d 0ee3 8a3d
000000a0: a1d9 8b3d bfa8 1abd f230 58bd 37ad 1fbd
000000b0: 476e 71bd cdbb 423c 8e6a a43d 2191 21bc
000000c0: f278 913b 1f4e b43d d826 ce3d 4444 79ba
000000d0: 2d9b 973d 61ea 38bd 3614 2b3d 6d4b 3dbc
000000e0: c932 5c3d 584f b3bd b96b c2bc 3000 2b3c
000000f0: 51b5 53bd d9ba 123d d550 8b3c 54c5 07bd
00000100: 426a e63d 9613 5dbd a71b 19bd 1cef 473d
00000110: 4286 31bd ef21 8e3c 5188 cebd 956b b13c
00000120: c61b f03c 9382 b7bd cc6f 1a3d 047d bb3c
00000130: ca2d 9fbd 200b 883d 53de e03d 28a6 b5bc
00000140: 233b 2dbc c4de cd3d 6b61 4eba e58f be3c
00000150: ad85 863c 5b7f d13d 3604 0abe de05 5c3d
00000160: 1896 09bb 0466 fc3d c56f 5a3d 10a0 963d
00000170: 866d ac3d be88 ad3d 9a37 a6bd c85c bcbd
00000180: 8a5e 943b 412a 33bc 1223 8a3d 1a53 2f3c
00000190: bef9 183c fc5b a8bd 5c6d d8bd ab72 b83d
000001a0: 4aad 853d aa98 f83d 7630 b9bd 0cad 0f3d
000001b0: 7135 853d 31d0 6cbb d55d 3d3d 7663 febc
000001c0: 0f5b a3bd 7809 23bd c14b b93d 7504 4c3d
000001d0: ca2a 463d 3b7c b83b c584 4ebd a84f 6a3d
000001e0: 35b2 9ebd bf81 aabd fe20 1d3d 604a 843d
000001f0: 6f2e b6bd ec75 a73d a9d5 4f3d b0cb a93d
00000200: d46e 96bd d1ba b6bd f307 6d3d f732 083d
00000210: 88ea c1bd f568 dcbc b87a a5bd 9357 9ebd
00000220: 3aef 6f3d a36c 0abd 39c0 a6bd b0e7 83bd
00000230: ccb2 6c3d 186f 333d e938 96bc ae06 acbd
00000240: 31fc 8cbd 16ae 90bd 2d51 a83c 72fd 4e3d
00000250: 0d8f 233d ebca 373d 31b9 313d 84ca 553d
00000260: 3f4f ccbd 03d9 c63d dccc ccbd 76ce 203c
00000270: 3ce3 5a3c 54b8 083c a3be 40bc 88ad ae3c
00000280: 3c4c fa3d 9b58 0abb 73f2 42bc e0a5 db3c
00000290: a1e8 e23d 3157 583c a714 0f3c 2ce9 1cbd
000002a0: 59fa 8dbc 0328 933d 916b 9cbc 8f33 323d
000002b0: 1a93 f03c 60c4 80bc cf53 813c 5a01 1e3d
000002c0: 2107 9c3d 16f2 3dbd 12d3 353d 7f7e 08bb
000002d0: 2a55 5cbd 74aa 51bd a1d0 803c 381e 813d
000002e0: a8a4 483d 6ae0 9abd 174f bd3c 65c5 a33d
000002f0: 1dc4 443d cfc1 08bc 3944 013e d713 afbd
00000300: 26f8 38bc 0793 5cbd 2c3b 8bbd 4418 b13c
00000310: 938c 30b9 8314 573d 1989 833d 5891 2cbd
00000320: 9c6f 2d3d 9178 063e 1f8c ad3c dac8 1cbc
00000330: 5232 953d 554b 8ebd 892e 9c3d 18c5 9a3d
00000340: e276 f63c 3ba1 403d 4076 88bd df55 46bc
00000350: cdb5 8abd 41be e93c a849 533d 3670 dd3d
00000360: 0a3c 7e3d 1116 dc3d bebb 22bd 0a08 ab3c
00000370: 8eb8 373d acdd 26be f777 51bd b31f e7bc
00000380: bc1d 10bd e09c 7fbd 668e 0abd 49e3 0e3d
00000390: 6756 833c d6c4 d43d 72c6 4cbd fa34 ccbc
000003a0: 2325 fbbb 00bc 7f3d 47a6 6e3d f2cc 503c
000003b0: 87dc 9cbd eba1 96bd 5f41 423d 15a6 45bc
000003c0: 4427 073d 01c0 ba3c 820a 98bc d859 2fbd
000003d0: b787 563d 54c7 9f3d efed 813d 7770 e83c
000003e0: 71bf ecbc 79a2 17be f66b 2f3d d1c4 213a
000003f0: 1d0e 123d 9aa8 2cbd 0d6b b23c 5f57 b9bd
-0.06051646 0.03421485 -0.0153459 -0.040470343 0.06034556 -0.049622893 -0.077957384 -0.08024319
0.076497644 0.118723124 -0.072203994 -0.10306651 -0.039823756 0.10410778 -0.022114461 0.07913678
0.10694589 -0.044772048 -0.033365246 0.028081125 0.109121434 0.1007622 0.078795634 0.06985783
-0.020821558 0.053960163 -0.11376854 -0.09093612 -0.060244776 -0.015336028 0.0022092015 0.030092362
0.12337587 -0.07476608 -0.069133244 0.042734176 -0.015975708 0.08162868 0.0872814 0.067815885
0.06828619 -0.037758585 -0.052781053 -0.03898355 -0.05894306 0.0118855955 0.08028136 -0.009861262
0.0044394666 0.08803963 0.100660026 -0.00095087686 0.07402644 -0.045145396 0.04176732 -0.011553627
0.05375937 -0.08755368 -0.023733007 0.010437056 -0.05168659 0.035822723 0.017006317 -0.03314717
0.11250736 -0.053973757 -0.037379887 0.048812017 -0.04334093 0.017350165 -0.10084594 0.021657744
0.029310118 -0.08960452 0.037704274 0.02288676 -0.077724054 0.06642747 0.10979905 -0.022173956
-0.010573181 0.10052255 -0.0007872793 0.023261974 0.016421163 0.10229369 -0.13478169 0.053716533
-0.0020994004 0.123241454 0.053329248 0.07354748 0.084193274 0.08473347 -0.08116074 -0.09197384
0.0045278715 -0.010935367 0.067449704 0.010700965 0.009336887 -0.082206696 -0.10567734 0.09006246
0.06527193 0.12138493 -0.09042446 0.03507714 0.06504334 -0.0036134834 0.046232063 -0.031053286
-0.079763524 -0.039803952 0.09047652 0.049808938 0.04838065 0.005630044 -0.050419588 0.057204872
-0.07748834 -0.08325528 0.038361542 0.064594984 -0.08895575 0.08176789 0.05074087 0.082908034
-0.073453575 -0.08922351 0.05786891 0.03325173 -0.094685614 -0.026905516 -0.08080047 -0.07731547
0.058577754 -0.03379501 -0.08142132 -0.06440675 0.0577877 0.04380712 -0.018337684 -0.083997115
-0.06884039 -0.07064454 0.02054652 0.050534673 0.039931346 0.044871252 0.043389503 0.052195087
-0.099760525 0.097093605 -0.10000011 0.009814849 0.013359841 0.0083447285 -0.011764201 0.02132298
0.12221572 -0.0021109942 -0.011898625 0.026812494 0.11079527 0.013204382 0.008732951 -0.038308308
-0.01733129 0.07185366 -0.01909426 0.0435062 0.029367018 -0.015718639 0.015787033 0.038575508
0.07618547 -0.04637345 0.044390745 -0.002082735 -0.053792156 -0.051187947 0.015724482 0.06304592
0.048985153 -0.07562335 0.023109002 0.079966344 0.04803859 -0.008346989 0.12623681 -0.08548706
-0.011289632 -0.053851154 -0.067983955 0.021618016 -0.00016837036 0.052509796 0.06422634 -0.042130798
0.042342767 0.1313193 0.021184979 -0.009569371 0.072849885 -0.06947962 0.076260634 0.07557124
0.030085985 0.04702876 -0.066631794 -0.012105434 -0.06772957 0.028533103 0.051583916 0.10812418
0.062068976 0.10746396 -0.039729826 0.020877857 0.04485374 -0.16295499 -0.051139798 -0.028213358
-0.035184607 -0.062405467 -0.033827208 0.034884725 0.01603241 0.10389106 -0.04999394 -0.024927605
-0.007664339 0.06243515 0.058264043 0.012744175 -0.0765925 -0.07355102 0.047425624 -0.012063523
0.03299643 0.022796633 -0.018559698 -0.04281029 0.05237552 0.07801691 0.0634421 0.02837394
-0.02889988 -0.14808072 0.04282757 0.00061709905 0.03565799 -0.04215298 0.021779561 -0.09049868

fc2.bias f4 [84]
00000000: 4f39 87bd 98d8 9e3d 3fa5 6f3d 0f2a 2dbd
00000010: 0820 933d 501f 863d f50a 573d 977a 373d
00000020: f9cf a43d 9ada 833d de28 bf3c f046 193a
00000030: f8d5 003b b0b3 80bd e7f8 b03d 65bc abbd
00000040: f0ca ac3d c16f 3c3c f64e 4b3d 66ef 283d
00000050: 3527 ae3d 3332 0a3d 2320 44bc f8ff b03d
00000060: e6a1 fc3b e84b f43d 4e15 8ebd 3ccd 95bc
00000070: f5cd b03c 7f0b 11bd dcd4 b53d 8f97 56bd
00000080: 4efe aebc aee7 a03d 3b22 ef3c 8688 afbd
00000090: 842e 9dbd 1d87 573d fe02 833d c479 66bd
000000a0: f67c 80bd 1dc5 eabc e526 16bd b690 82bc
000000b0: 31dd 2a3d da6a 2dbc c0f6 a23c 0079 023e
000000c0: 81df 19bd 50a5 cdbc 1c08 b33c e03e 993c
000000d0: d3a6 b73d 2cbe dabc 2c75 4fbd 3461 043d
000000e0: f857 0ebd 9771 4ebd f915 14ba f83b 13bd
000000f0: be6d 42ba 0032 32bb 2857 fc3c cb28 e13c
00000100: 5dc9 453c 804f 7a3d 453e cb3d a366 b73d
00000110: f70c 053d c8fe 8f3d 307d acbd 5e50 9f3c
00000120: 9e5e 1bbc 3ce8 9c3c 4eba c03d 3cee 2eb9
00000130: 4d66 bf3d 74a5 d13d 4f13 babd 11ca 423d
00000140: 1f31 31ba f27e f43c f804 803d 5fdf f23d
-0.066027276 0.07756156 0.0585072 -0.04227644 0.07183844 0.06548941 0.052500684 0.044794645
0.0804748 0.06438179 0.023334917 0.00058470573 0.0019658785 -0.06284273 0.08641224 -0.08385543
0.08437145 0.011501254 0.04963585 0.041243933 0.08503572 0.03373928 -0.011970553 0.08642572
0.0077097295 0.119285405 -0.06937657 -0.01828634 0.021582583 -0.035411354 0.0887849 -0.05239063
-0.021361496 0.078566894 0.029191127 -0.08570962 -0.07674888 0.05261909 0.06397055 -0.05626847
-0.062738344 -0.028658444 -0.036658186 -0.015938144 0.04171485 -0.010584557 0.01989305 0.1274147
-0.037566666 -0.025103241 0.021854453 0.018706739 0.08967366 -0.02670201 -0.050648853 0.032319263
-0.034751862 -0.050401296 -0.0005649026 -0.035945863 -0.00074168656 -0.0027190447 0.030803278 0.027485272
0.0120719345 0.061110973 0.09923986 0.08955123 0.032483067 0.070310175 -0.08422315 0.019447502
-0.009483008 0.019153707 0.09410535 -0.00016682682 0.09345684 0.10236636 -0.09085714 0.047555987
-0.0006759334 0.029845688 0.06250948 0.11859011

fc3.weight f4 [10, 84]
00000000: 73e3 343e 68d2 efbc 9b67 26bd deff a2bc
00000010: 95ec fdbd 926f 8d3d b545 b4bd f3fe 56bd
00000020: 3249 2fbe 834d 463e 167a 58bd 4458 c1bd
00000030: 10e1 6fbe 72b2 edbd cd1a 643e 20af c5bd
00000040: 457b eabd fcfd 28be 489f 2d3d 188e 95be
00000050: c347 633e c8d9 4fbd 51e2 b5bd 1b78 f83d
00000060: a349 c0bd ac65 0c3d d248 713d 06f0 2abd
00000070: d6fa c03d 3c75 843d 0589 51bd 9619 513e
00000080: 3c93 813e 43e6 393d 4477 e13c 7265 1cbe
00000090: 25c7 f33d 2a25 953c 3d36 4bbe 2eb0 303d
000000a0: f0ed d23d de4c 47bd b311 bcbd 1e90 bcbd
000000b0: 1806 183e 3726 27be ef24 31be 94bb 3b3e
000000c0: dd82 513c a54d ac3d 19e9 8cbd 818a 7fbe
000000d0: d3cc 513e 90b0 95bb e663 ddbd 3933 173e
000000e0: 6b98 8ebd 341f 693d 4851 a53e 82b9 9abc
000000f0: 4064 7f3d 9771 b2bd 0f39 913d 0958 3fbe
00000100: 204e 83bd 82ec e8bd 9daa 403e 288d 453e
00000110: a1be 02be 454d 793d b861 d33d b6f2 703e
00000120: a5bf 953d b6dc dc3d 8b6c a1bc ca7d 84be
00000130: 7d78 82be 9937 7c3c 95bb 203d 532d fa3d
00000140: d2e2 22bc 5338 1cbe a21d 0d3e 2729 163e
00000150: 0e0b fabb b929 e8bd c7c1 a63e 84fb ccbc
00000160: d8de d33d 5449 853d a1bc 62bd c338 7f3d
00000170: d45f 303d 9405 083d e1db 73bd 9483 bfbd
00000180: a483 913b 07a9 4bbe dfff 09bd f369 8dbc
00000190: 299b f03c 9af4 423e 9c9d 773e 4db1 a6bc
000001a0: 7802 05be 92e7 6ebd 92aa 273e 7b36 793d
000001b0: 3e24 1abd 983e e0bd 90dc c3bd e5ed 80bd
000001c0: a28d 49bd 028d a93c 4539 223e 6003 673e
000001d0: 47fb a63b 4fc9 af3c 4f6e e93d 80f8 273e
000001e0: 497a cbbd a981 a13e 347c 81be fc41 e2bd
000001f0: 0f09 9fbd 4501 59be 38c4 783e 80eb 59be
00000200: d1ba 9bbe 2d79 673d ecc3 3fbe 967e 83be
00000210: 5dcf b1bc fa45 c13d 1e13 2b3d 2c6f 093e
00000220: 3259 523a 886f 01be 65df c8bd 45e3 903e
00000230: 08f1 373e 9940 77bd 43e6 f6bd 0efc 59be
00000240: e76e 633d a30f c33d 33c0 ab3d 25f8 66bd
00000250: 4ac1 3c3e df9b 7b3c 83c8 093e 2a74 d93d
00000260: e11f 1abe 25cf 3d3b 278d 22bd e25b 26bc
00000270: bde2 8b3d 3a8f 18be 2925 cabb 2cad ba3d
00000280: 8992 c9bd 28f3 73be 756a e0bc c771 c7bb
00000290: 6cb6 3abe e546 853e 98c8 07be e49a 28be
000002a0: 851f 94be 2330 223e d68f 013e 03ce b93d
000002b0: bee3 66bd e4be 20be 3e17 313c bf39 63bd
000002c0: 997e b23d 60e8 403e 0b2d b43d 86d7 0abe
000002d0: a21d 6dbe 7239 dfbc 0913 40bd 7a0b 883c
000002e0: 2e57 1f3e 8ed1 833e 18a3 913e e56f 343d
000002f0: 0a11 003e eab6 a9bd ecd7 74be 7673 a43e
00000300: 056b 8b3d bf6a a6bc ff05 e1bb a3f4 053d
00000310: 3866 3b3e 77f1 593d 0c6f 0d3d 1a15 26be
00000320: 5f7f 443c b445 4fbd bbe0 53bd 2c60 9fbd
00000330: 6b6d 1d3d caf9 7c3b d4a7 59bd 5170 453e
00000340: dcbd a1ba 7ab6 683e f777 cabd a218 febd
00000350: 0e1f 993e 6bd9 1bbe fd6f b13d 7fba 9d3d
00000360: 34d9 b4bd f132 393e c1fa be3d 2b32 8bbe
00000370: df0a 46be 16f5 13ba b4a4 583d 6f4f 463c
00000380: 40fd 49be 4449 51bd 1920 0c3d 7d7e 24be
00000390: d7f7 653d 0e1c 50bd 46c5 66bd 682d 173d
000003a0: 0ce8 873e 734e cebd d715 4bbe a0e4 e6bd
000003b0: d4b1 183e 96dc 123e e8b9 e3bd e4be 21be
000003c0: d49d a03e 4e5a cfbd 1c7a 08bd 4a56 29bc
000003d0: d1b9 123e a130 01bd 30ff 823d 9b9d 2cbe
000003e0: 2415 fc3c 4775 833e 4532 28bd 55e0 293d
000003f0: 1ab0 d1bd f17b c73d f801 8dbd af76 ae3d
0.1766489 -0.029275134 -0.04062615 -0.019897398 -0.1239864 0.06906046 -0.08802358 -0.052489232
-0.17117766 0.19365506 -0.052850805 -0.094406635 -0.23425698 -0.11606301 0.22275849 -0.09652543
-0.11449293 -0.16503137 0.04238823 -0.2920997 0.22195344 -0.0507448 -0.08881057 0.12132283
-0.09389045 0.03427665 0.058907337 -0.04173281 0.09422843 0.06467673 -0.051156063 0.20419917
0.25307643 0.04538561 0.02752269 -0.15273073 0.11903218 0.018206198 -0.19844909 0.043136768
0.10299289 -0.04865729 -0.09183063 -0.09207176 0.14846075 -0.16323172 -0.17299245 0.18333274
0.012787548 0.08413247 -0.06880397 -0.24955179 0.2048829 -0.004568167 -0.1081007 0.14765634
-0.06962665 0.056914523 0.32288575 -0.018887285 0.062351465 -0.08713072 0.07090961 -0.18685926
-0.064113855 -0.11373235 0.18815084 0.19292128 -0.12768032 0.060864706 0.10321373 0.23530087
0.07311944 0.10784285 -0.019705078 -0.2587722 -0.2548255 0.015394115 0.039241392 0.12215676
-0.0099417735 -0.15255861 0.13780835 0.14664136 -0.0076307124 -0.11336083 0.32569715 -0.025022276
0.103452384 0.06508127 -0.05535567 0.06230999 0.04306014 0.033208445 -0.059535865 -0.093512684
0.0044407416 -0.19888698 -0.033691283 -0.017262435 0.029370861 0.1903862 0.24181217 -0.020348215
-0.12989223 -0.05832631 0.16373661 0.060842972 -0.03763222 -0.10949439 -0.09563553 -0.06295375
-0.049207337 0.02069712 0.15842159 0.22559881 0.0050958726 0.021458296 0.11397993 0.16403389
-0.099354334 0.31544235 -0.25290072 -0.11047742 -0.077654 -0.2119189 0.24293602 -0.21281242
-0.30415967 0.056512047 -0.18727082 -0.25682515 -0.021705324 0.09437175 0.04176628 0.13421315
0.00080241554 -0.12640202 -0.09808234 0.28298393 0.1796304 -0.06036434 -0.12055638 -0.21287557
0.055525687 0.09524467 0.083862685 -0.056388993 0.18433109 0.015356987 0.13455395 0.1061786
-0.15051223 0.002896258 -0.039685395 -0.0101537425 0.06830356 -0.14898387 -0.0061689806 0.09115061
-0.098424025 -0.23823225 -0.027394513 -0.0060865614 -0.18233651 0.2603065 -0.13260114 -0.16465336
-0.28930297 0.15838675 0.12652525 0.09072497 -0.056369536 -0.15697819 0.010808764 -0.055474993
0.08715553 0.18838644 0.08797654 -0.13558778 -0.23155835 -0.027249072 -0.046893153 0.016607035
0.155606 0.25745815 0.28444743 0.044052023 0.125065 -0.08286841 -0.23910493 0.3211934
0.06807522 -0.020314572 -0.00686717 0.032704007 0.18300712 0.053208794 0.03452973 -0.16218987
0.011993258 -0.050603583 -0.05172799 -0.07782015 0.038434427 0.0038601034 -0.05313857 0.19281127
-0.0012339908 0.2272586 -0.09886163 -0.12407042 0.29906505 -0.15219657 0.08663938 0.07701587
-0.08830491 0.18085839 0.09325171 -0.27186713 -0.19340084 -0.00056441256 0.05289145 0.012103899
-0.19725513 -0.051095262 0.0342103 -0.16063876 0.05614456 -0.050808005 -0.05634048 0.036908537
0.26544225 -0.10073557 -0.1983255 -0.112740755 0.14911586 0.1434196 -0.11119443 -0.15795475
0.31370413 -0.10124646 -0.033319578 -0.010335514 0.14328696 -0.031540517 0.063963294 -0.16856997
0.0307718 0.25675413 -0.041063566 0.041473705 -0.10238667 0.09740437 -0.06885141 0.08518731

fc3.bias f4 [10]
00000000: 0f07 1cbd d069 81bd d146 9d3d 9b80 723d
00000010: 761c 293d 2c10 373d f1dc d1bc bd7c f53d
00000020: 124b e53d 6782 b6bd
-0.03809267 -0.0631901 0.07679523 0.05920468 0.041286908 0.044693157 -0.025618048 0.119866826
0.11195959 -0.08911591
